_Models/vae_encoder.pth (torch, 43824 bytes, 10 tensors)

fc1.weight f4 [128, 8]
000000 6e 82 52 3e 99 48 30 3d 2b be 91 be 8c 91 55 3e
       0.20557567 0.043037985 -0.284654 0.20856303
000010 27 3f 9c 3e 5f f6 15 3e 19 30 6d 3c 29 a8 58 3e
       0.3051693 0.14644764 0.014476799 0.21157898
000020 fb c0 83 be a8 e6 7a be bc 76 c2 bd e7 4a 59 be
       -0.2573317 -0.24502051 -0.09495303 -0.21219979
000030 dc 94 c8 bc 26 b3 27 3e ae 4b 6a be 82 2d 55 be
       -0.024485044 0.16376933 -0.22880432 -0.20818141
000040 58 fb e0 3d 83 0f 06 3c 05 50 30 bc c7 d6 a3 3e
       0.1098544 0.008182409 -0.010761266 0.319998
000050 a1 b4 83 3e c4 b3 af be 8d ff ce bd 7d c6 50 3e
       0.25723746 -0.34316838 -0.10107336 0.20388217
000060 b7 f3 93 be 7b d9 ae 3e b3 89 47 3e 3f c3 94 3e
       -0.28896877 0.341503 0.19486122 0.2905521
000070 48 a2 03 be 9b 8f 53 3e 56 2f 4c 3e ec 35 3d be
       -0.12854874 0.2066025 0.19939932 -0.18477601
000080 66 b7 24 3e 79 79 7a be ec a4 88 bb 17 e4 8e 3d
       0.16085586 -0.244604 -0.004170051 0.069770984
000090 43 6a 91 3e 82 00 15 3e e6 c3 a4 3e f7 40 df 3d
       0.28401384 0.14550975 0.3218071 0.10901063
0000a0 58 e9 ff 3d 15 b6 07 be 4f 88 0d 3e 2a 9f d7 bd
       0.12495679 -0.13253053 0.13821529 -0.10528405
0000b0 be 40 10 be 79 fc 9b 3e 1c 27 ec bd ba c5 8e be
       -0.14087197 0.3046606 -0.11530897 -0.27885228
0000c0 84 c2 1c bd 51 f5 83 be 5e db 02 3d 8c 0c 10 3d
       -0.038271442 -0.257731 0.031947486 0.035168216
0000d0 34 e9 65 bc 21 13 3a be c2 72 bc 3d 36 71 37 3e
       -0.014032651 -0.1817136 0.09201576 0.1791428
0000e0 6d 86 9c be 32 b5 88 bd 6c f7 3c be ca 73 21 bd
       -0.3057131 -0.06675185 -0.18453759 -0.039417066
0000f0 44 7b a0 3c ab 18 0a be e7 b9 81 3e 40 e6 f1 bd
       0.019590028 -0.13485973 0.25337145 -0.11811495
000100 99 36 92 be 48 e0 b6 be 8d 9e 0a 3d 66 5f a3 bb
       -0.2855728 -0.35717988 0.033842612 -0.0049857376
000110 f5 4a b2 3d 13 09 38 bd a2 18 95 3d 35 83 a0 be
       0.08705703 -0.04493053 0.07280089 -0.31350103
000120 5b 69 07 be fe ce 93 be 4e 69 e1 bd 07 ef 60 3e
       -0.13223784 -0.2886886 -0.110064134 0.21966182
000130 f5 dd 9d 3e d4 74 74 3e 8e 46 de 3d 67 c2 f0 3d
       0.30833402 0.23872691 0.10853301 0.11755829
000140 60 e3 06 be be 3c 46 be eb a4 86 3e dc 65 15 be
       -0.13172674 -0.19359109 0.26297697 -0.14589638
000150 92 48 80 bd a4 fa ec bd 6b be 91 be cd 79 00 be
       -0.06263842 -0.115712434 -0.2846559 -0.12546463
000160 1d c6 87 3e ff 4b 31 bc 5e d8 64 be cc d8 a1 3e
       0.26518336 -0.010821342 -0.22348163 0.31610715
000170 04 0d 83 3e fa dc a7 3e 5f 9d 6d 3e ca f3 a3 3e
       0.25595868 0.3278578 0.23204564 0.32021934
000180 89 24 40 be a7 23 a1 3c 77 5a 2c 3e e4 64 df 3b
       -0.18763937 0.01967032 0.16831385 0.006817447
000190 ec c4 e2 bc 2b f0 14 be 74 cb 9a be d0 b1 68 be
       -0.02768179 -0.14544742 -0.30233347 -0.2272408
0001a0 f5 82 98 be 51 e5 f2 bd 5a 9e 9b 3e 9a 2f 77 3e
       -0.29787412 -0.11860145 0.3039425 0.24139252
0001b0 f8 6c 89 be b9 34 a7 be 10 48 80 bd a2 d8 b4 3d
       -0.2684095 -0.32657412 -0.06263745 0.08830382
0001c0 03 eb 32 be 1a 00 f4 3d 9d de a8 3e 15 c7 29 3e
       -0.17472462 0.11914082 0.3298234 0.1657985
0001d0 81 58 dd 3c 89 6e 6f 3e e8 5a 99 3d 88 1f 1f 3e
       0.027019741 0.2338201 0.07488042 0.15539372
0001e0 95 75 20 be 6b 26 90 be 5a ab 2a be a4 f1 02 3d
       -0.15669854 -0.2815431 -0.16666928 0.031968728
0001f0 dd 14 ae 3d 4e 85 36 3e 4f b2 20 3e 5f 6b 9b 3e
       0.08500073 0.17824289 0.1569302 0.30355355
000200 e9 25 06 bd 2c 31 86 3e 39 e3 f3 3d 4d a5 24 3e
       -0.032750998 0.2620939 0.11908574 0.16078682
000210 c5 8c 96 3e 47 09 6c be e7 5c bc bc fd 90 77 3e
       0.29404274 -0.23050414 -0.022993518 0.24176402
000220 65 2c 9a be 1d 07 d3 3d 4e 1d 24 be 20 f7 30 be
       -0.30111995 0.10304091 -0.16026804 -0.1728177
000230 e0 13 b2 3e c6 50 a9 bd 28 69 c9 bd 1f c0 59 3e
       0.34780788 -0.082673594 -0.0983451 0.21264695
000240 83 55 67 3e 00 22 8b be 5c 27 93 be e0 83 aa 3e
       0.22591214 -0.27174377 -0.28740966 0.33303738
000250 ea 2d 31 3d 5d 93 7e 3e ca 7d 2e be 52 7d 82 3e
       0.043256678 0.24860902 -0.17040172 0.25486237
000260 83 16 aa 3e a0 44 aa bd c2 1c 56 3e 22 34 db bc
       0.332203 -0.083138704 0.20909408 -0.026758257
000270 e2 ea b6 3c 2c 5e 6b be 6b b6 a3 be 7c 7c a5 3e
       0.022328798 -0.22985142 -0.3197511 0.32321537
000280 a7 ee 55 be 37 09 11 3e 90 79 2c be 12 8a 36 3d
       -0.2089182 0.14163671 -0.16843247 0.044565268
000290 34 30 19 be de a5 a4 be 64 20 7c 3e ad ab 91 be
       -0.14959794 -0.32157797 0.24621731 -0.2845129
0002a0 3c b1 d9 bd d1 12 21 3e 6c 7c 91 be b0 b5 19 be
       -0.10629508 0.15729834 -0.2841524 -0.15010715
0002b0 d2 38 75 3e 63 bd 3b bd 3e 11 69 be bc 50 03 3e
       0.23947456 -0.04583491 -0.22760484 0.12823766
0002c0 23 5a 70 3e 75 f7 65 be de 91 2f be 09 a7 f2 3d
       0.23471884 -0.22457679 -0.17145488 0.11848266
0002d0 fb 1b aa 3d 48 c4 9b 3d cc e7 0b bd ed 34 29 bb
       0.08306118 0.07605797 -0.034156606 -0.00258189
0002e0 48 f7 79 be 49 4c 83 be af 75 5c 3e 46 40 4a be
       -0.24410737 -0.25644138 0.21529268 -0.19751081
0002f0 d5 2f 20 be 25 ab c2 bd aa e0 e2 3d 64 30 07 3e
       -0.15643246 -0.095052995 0.110780075 0.13202053
000300 08 27 1e be 0c 79 89 3e b3 14 1c bc 87 89 76 be
       -0.15444577 0.26850164 -0.009526419 -0.240759
000310 ce 40 8f 3d 16 44 a2 be 48 d0 24 be f1 8f 52 be
       0.069947824 -0.3169257 -0.16095078 -0.20562722
000320 77 eb b7 3d 6a 80 52 3e 9e 31 ec 3d b9 ba 4e 3e
       0.08980458 0.20556799 0.11532901 0.20188417
000330 fa 9b 6d 3e 1e ae 4e 3e 47 97 25 be b4 91 0c bd
       0.23204032 0.20183608 -0.16170989 -0.03431864
000340 f4 1c 0b 3e cf 39 d6 3c 44 2e 53 be 2e 82 f5 3d
       0.13585263 0.026150612 -0.20623118 0.119877204
000350 50 96 8d 3e 0c 0a 90 3e 9c b2 95 3e 6f f1 9b 3e
       0.27653742 0.28132665 0.2923783 0.30457637
000360 57 41 cb bd 01 7b c8 bc 5d ad 86 3e e2 0c 05 3e
       -0.09924572 -0.024472715 0.2630414 0.12993196
000370 c4 13 f1 3d 32 94 c9 3d a8 d5 a7 be 49 1b 84 be
       0.11771348 0.09842719 -0.32780194 -0.25802067
000380 65 dc 94 bd f4 4a 10 3e b2 01 93 3e 0f a8 99 bd
       -0.072685994 0.14091092 0.2871223 -0.07502758
000390 50 cb fc bc bc 38 6d 3e e0 d2 18 bc 17 11 a6 3c
       -0.030858666 0.23166174 -0.00932762 0.020271821
0003a0 30 f0 1d bd 52 79 5d be 66 8e 98 bc 7f 78 fb 3c
       -0.03855914 -0.21628311 -0.018622588 0.030697105
0003b0 a3 d5 ac 3e 0f b5 0f 3e 48 16 6a be 7f 96 5d be
       0.33756742 0.14033912 -0.22860062 -0.21639441
0003c0 06 06 98 bd 7b 19 8d 3c 3e 7d a1 be ea dd 94 3e
       -0.07423024 0.017224064 -0.31540865 0.29075557
0003d0 8e e3 ac bb 42 26 86 be 8a 6a 08 3e 3e 90 97 3c
       -0.00527615 -0.26201063 0.13321891 0.018501397
0003e0 73 18 b0 be bc a2 9d 3e f8 50 36 be a7 7f ec 3d
       -0.34393653 0.3078822 -0.17804325 0.11547785
0003f0 25 29 40 3e 2a 96 4d 3d 62 a2 16 3e 98 84 f8 bd
       0.18765695 0.050192036 0.14710382 -0.12134665

fc1.bias f4 [128]
000000 7a 87 ee bd 99 a2 5a 3d 8c 11 46 be 13 c4 89 be
       -0.11646934 0.05337772 -0.19342631 -0.26907405
000010 97 02 60 3e 1f 5f 43 be 11 4b e7 3d 63 2d 90 3e
       0.21875988 -0.19079255 0.11293615 0.28159627
000020 b9 f9 36 be 09 c4 23 bd c1 31 2d be 5e 93 87 be
       -0.17868699 -0.039981876 -0.16913511 -0.2647962
000030 1b 8a 22 be 40 89 68 be ce 64 32 3e d0 94 a2 be
       -0.15872996 -0.22708607 0.17421266 -0.3175416
000040 9e dc b3 be 99 00 5d be 6b c0 12 3e 91 6c 92 3e
       -0.35129255 -0.21582259 0.14331214 0.28598455
000050 3c bc fb bd 16 13 8e 3e 02 76 88 3d b1 36 93 3e
       -0.12291762 0.27748936 0.06663133 0.28752664
000060 43 64 18 bd 95 10 e8 3c 58 dc 86 be 1a 65 ca 3d
       -0.037204992 0.02832822 -0.26339984 0.09882565
000070 5b 02 52 be 45 9d ed bc 4e 7c 39 be 1a 64 20 be
       -0.20508711 -0.029005656 -0.18113825 -0.15663186
000080 70 8f 22 3c 50 56 fe bd a2 1b d0 bd 76 1c 2b be
       0.0099218935 -0.124188066 -0.101615205 -0.16710076
000090 be c7 66 3e 56 7d 97 be 96 2b 1b 3e 61 11 c7 bd
       0.22537133 -0.2958781 0.15153345 -0.09720112
0000a0 de e6 1f be ad 9a f5 bd d9 fa 09 be bb e5 91 bd
       -0.15615413 -0.11992393 -0.13474597 -0.07123896
0000b0 f0 2d 12 3d cd 17 7a be 2e 28 b7 be 3e 0b 88 be
       0.03568834 -0.24423142 -0.35772842 -0.26571077
0000c0 dd 76 a8 3e 92 47 c3 bc 00 80 80 be f8 5e 89 3e
       0.32903185 -0.023837838 -0.25097656 0.26830268
0000d0 73 b2 7a be 63 b9 f0 bd 32 8a f0 bd 45 46 19 be
       -0.24482135 -0.1175411 -0.11745109 -0.14968212
0000e0 3c 09 be 3b 49 dd fd 3d 0c b7 87 bc 3a f9 a8 be
       0.0057994407 0.123957224 -0.016566776 -0.33002645
0000f0 3b 75 9f 3d 2b 71 6b 3e 18 80 5b 3d 19 c7 83 be
       0.07786032 0.22992389 0.053588957 -0.25737837
000100 1a f9 3e be ad c5 90 bc 6d 37 a9 bd e5 06 82 be
       -0.18649712 -0.017672384 -0.08262525 -0.25395885
000110 2a 55 7c 3e 47 12 9f be 1b f3 97 be 8a 0a 71 3e
       0.24641863 -0.31068632 -0.29677662 0.23539177
000120 51 d5 e0 3c b4 ed 31 be 55 c7 3d be 58 03 70 bb
       0.027445467 -0.17375833 -0.1853307 -0.0036623087
000130 88 90 c2 bd 0c e5 a8 3e ca f3 12 be 51 80 a3 be
       -0.095002234 0.3298725 -0.1435081 -0.31933835
000140 70 57 94 bd d2 ac 25 be 9a 66 63 be c5 c8 3d bd
       -0.0724324 -0.16179207 -0.22207108 -0.046334047
000150 6d d8 9d bd 2f b0 73 3c 11 18 19 3e 8c 32 c2 bd
       -0.077072956 0.014873548 0.14950587 -0.09482297
000160 14 6d 22 be 22 9e 96 3d c6 1c bf bc 47 c7 63 3e
       -0.15861923 0.0735438 -0.02332915 0.22243987
000170 32 7e a1 3e 04 09 51 be 82 1d 75 3c b1 2c 9f 3d
       0.31541592 -0.20413595 0.0149606485 0.07772196
000180 8a 3c 89 be ad 1d b1 be ec 62 76 be 92 d9 44 be
       -0.26804 -0.34592953 -0.24061173 -0.19223621
000190 4d 6c 93 3d 1a 5c f5 3d 50 f9 83 3d c6 76 1f be
       0.07198391 0.119804576 0.06444037 -0.15572652
0001a0 09 c8 73 3e 35 18 12 3d d2 9d 82 bd a5 9f 8d be
       0.23806776 0.035667617 -0.06377758 -0.27660862
0001b0 d7 04 0d be 00 c6 9e bd 9b 8c aa 3e 8f 4a 2d be
       -0.13771378 -0.07752609 0.33310398 -0.16922973
0001c0 49 e1 fe 3c 24 b3 a5 3e 91 29 84 3e 61 24 1d 3e
       0.031113284 0.32363236 0.25812963 0.15345909
0001d0 65 0c 08 3e f2 2b f8 bd 91 68 75 3e 69 88 8d be
       0.13285978 -0.12117757 0.2396567 -0.27643135
0001e0 40 ee 2a be 72 8a 8a bd 4f e2 75 be ba b6 8b 3b
       -0.16692448 -0.067646876 -0.24012111 0.004263726
0001f0 01 3c 8e 3e 1a 0a 82 3e 3c 1b 68 3d 4c 5b 89 3e
       0.27780154 0.25398332 0.056666598 0.26827466

fc21.weight f4 [20, 128]
000000 c8 ff 7a 3a 5f f4 4c bd 38 cb eb 3c 79 e8 c3 3b
       0.00095748575 -0.050037738 0.028783426 0.0059786406
000010 9b dd 8d bd 4f 7e 8d 3d e2 8b 39 3d d4 37 d3 bb
       -0.069270335 0.06908857 0.04529942 -0.006445864
000020 96 e5 0e 3c d3 88 c0 3d 43 bb 49 bd 80 1b 57 bc
       0.00872173 0.09401097 -0.049250852 -0.013129115
000030 6e 8c ba bd 5d 0f 21 3d eb 64 a4 3d 5d fc 0d bd
       -0.09108816 0.039321292 0.08027061 -0.0346645
000040 ab 2a df bc 24 36 8e bd 68 17 4d bd ef cd 95 3c
       -0.027242025 -0.0694392 -0.05007115 0.018286673
000050 a7 44 c6 bb 12 17 cf 3c 2f c3 2b 3d 74 5d 76 3d
       -0.0060506645 0.025279555 0.04193419 0.060147718
000060 ce 12 be bd e9 3d 89 bc e1 7a d5 3b cd fa 67 bd
       -0.092809305 -0.016753154 0.0065148924 -0.056635667
000070 23 5f 03 3d e2 8e 7d 3d 62 44 70 bd e6 69 65 bd
       0.03207315 0.06190384 -0.058658965 -0.056009196
000080 3f ab 2b 3d fc d1 aa 3d 17 62 7a bc 09 be c3 3c
       0.04191136 0.083408326 -0.0152821755 0.023894327
000090 15 0e 36 bd 45 22 be bd 82 00 df 39 47 b7 b4 ba
       -0.044447023 -0.0928388 0.00042534253 -0.0013787531
0000a0 ee 35 90 bd 3e 00 3d bd cf e9 91 bd f0 e4 4e 3b
       -0.07041536 -0.04614281 -0.071246736 0.0031569563
0000b0 76 c8 0f bd 39 98 39 3d 12 c1 47 bd 20 f1 35 bc
       -0.035103284 0.045311186 -0.04876811 -0.011104852
0000c0 00 53 0b 3d 57 9d 88 bc 0d 46 c7 bd 29 28 90 3d
       0.0340147 -0.016676588 -0.09730158 0.0703891
0000d0 94 ec 1f bd d0 e3 82 bd 85 f8 85 bc fc 9d 75 bd
       -0.039043978 -0.06391108 -0.016353855 -0.05996512
0000e0 70 1e b2 bb c6 97 99 bd 28 89 f3 3b 05 d5 1d 3d
       -0.0054357573 -0.074996516 0.007432122 0.03853323
0000f0 3d f9 24 3a 4c 5a 40 bd e9 50 2a bd 24 c9 da bc
       0.0006293243 -0.046961114 -0.04158107 -0.02670724
000100 3b 89 c6 3d 94 1f 87 bc a8 f3 47 3d 4d 36 2c 3d
       0.096941434 -0.01649455 0.048816353 0.042043973
000110 4d 17 3d 3d b0 31 92 bd 5b f3 78 bd d5 dc 34 3d
       0.0461648 -0.071383834 -0.060778957 0.044155914
000120 cf d3 8f 3a 5a 6a 95 bd 62 3c d2 3b 94 25 9e bc
       0.0010973158 -0.072956756 0.0064158896 -0.019305028
000130 fa e7 ad 3c 0d ec a3 bc 4f d1 1b 3d 6d 3f b3 bc
       0.02122878 -0.020010019 0.03804141 -0.02188083
000140 8c 9d 5c bd a2 9a 11 3c 86 25 8c bd 5d 60 54 bd
       -0.053861186 0.008886965 -0.068430945 -0.05184971
000150 86 58 22 bd ac 55 6a 3d 14 35 b7 3c 69 30 bf 3b
       -0.039635204 0.05721061 0.022364177 0.0058346284
000160 d3 b2 ca bb 2f 6d 06 3d fc 7d d0 bc 32 20 91 bc
       -0.0061858683 0.03281897 -0.025450699 -0.017715547
000170 86 f9 6f 3d 5c 87 5d bc fa e8 fc 3c a9 da 5d 3d
       0.058587573 -0.013521042 0.03087281 0.05416361
000180 65 a6 ac 3d e6 53 67 3c 9f 17 a3 bd 60 07 42 3d
       0.08430175 0.014119124 -0.0796349 0.047370315
000190 19 9a 54 bd 47 53 2b bc 1f 8a 69 3d 8e 69 4d bd
       -0.05190477 -0.010456867 0.05701649 -0.050149493
0001a0 c9 ac 38 bd d6 1b c7 bc b9 5c 88 3d 35 28 ae 3d
       -0.045086656 -0.024305265 0.066583104 0.08503763
0001b0 98 8a 83 3d ed d2 4f bd 89 c4 61 3c 83 9e 88 bd
       0.06422919 -0.050738264 0.013779768 -0.06670859
0001c0 20 0f 50 3c 22 d3 07 3d 4d ad df bc 37 c1 cc bc
       0.012698919 0.033160336 -0.027304316 -0.024994476
0001d0 9d 85 bf bd 93 73 bf bc d1 98 0c 3d 7f 62 77 bd
       -0.093516566 -0.02337054 0.034325425 -0.060396668
0001e0 82 3d b2 3c 94 c9 0a 3d c2 28 6d 3d 1f 9d a9 3c
       0.021757845 0.033883646 0.057900198 0.020704804
0001f0 0d 5e f4 3c 6e 6f 89 3a 52 75 1e 3d ad 50 50 bc
       0.029830003 0.0010485479 0.038686104 -0.012714547
000200 12 59 30 bd ff bd 86 bd 54 78 f5 bc ac c4 86 bc
       -0.043053694 -0.06579208 -0.029964603 -0.016451202
000210 fc d2 d1 3b 23 67 36 bc 54 dc 9b bc 19 5a b7 3b
       0.006403325 -0.011132988 -0.01902596 0.0055954573
000220 f5 f3 68 3d eb 80 cc bd 1e 97 86 bd 8c 3b 9f 3c
       0.05687328 -0.09985527 -0.06571792 0.019437574
000230 0f 39 4c 3d b2 fb 09 3c 7b c9 0f 3c 25 07 92 bd
       0.049859103 0.008421825 0.008776064 -0.07130269
000240 84 34 67 3d 63 5d bb 3d 89 7c 39 bc 7a 52 04 bd
       0.056446567 0.091486715 -0.011321195 -0.03230522
000250 74 36 48 3d 47 5e c5 3d 5d 5d 5e 3d ee d2 be bc
       0.048880056 0.096371226 0.054288257 -0.023293938
000260 01 4c 8a bc 45 b3 f6 3c 73 0f 61 3d bf c5 ab 3d
       -0.016881945 0.03011478 0.054946374 0.083873264
000270 30 30 25 3d 57 f6 15 bc f2 e0 14 3c 56 ea 08 3b
       0.04032916 -0.00915297 0.009086834 0.0020891628
000280 8d fe 1e 3d a5 cc 59 3b 89 47 ac bb 3f 48 f1 3c
       0.038816977 0.003323355 -0.005257551 0.029453395
000290 8e 62 62 bd fb 7b a5 3d 9f 0e 07 bd 81 00 b3 3c
       -0.05526977 0.08080288 -0.032972928 0.021850826
0002a0 11 00 85 bc c1 62 70 3d 03 9f 5b bc cd e6 5d bd
       -0.016235383 0.05868793 -0.013404611 -0.054175187
0002b0 90 0c 94 3d 41 e0 99 3b cc f8 0d bd 80 d4 98 3d
       0.072289586 0.0046959226 -0.0346611 0.07462406
0002c0 06 44 d6 3c 05 d5 0f bc 73 59 7e 3c 86 28 e3 3b
       0.026155483 -0.008778815 0.015524256 0.006932321
0002d0 45 7a 88 3d bd 91 5e ba 3e 9f 55 bd 60 77 7c 3d
       0.06663946 -0.00084903446 -0.05215382 0.061637282
0002e0 d3 9b 50 3d de 61 3f 3d 5e cf 4a bd 10 09 5e bd
       0.050929856 0.046724193 -0.049514167 -0.05420786
0002f0 81 44 76 bb db 1e 68 bd 3a 9d 23 bd f2 19 cb bb
       -0.0037577453 -0.05667005 -0.039944865 -0.0061981613
000300 7c dc 61 bd cb 79 a2 bc 25 05 07 3c 4e 42 16 bd
       -0.05514191 -0.019833466 0.008240973 -0.036684327
000310 ba 02 c9 bb cc b6 04 3c ba 8d bd bd ea 52 99 3d
       -0.0061343582 0.008100223 -0.09255548 0.07486518
000320 8e c5 48 bd 3f 96 b1 bd 91 bc 61 3b 4a f9 7f 3d
       -0.049016528 -0.08671235 0.003444467 0.0624936
000330 f3 2e 93 bd 60 94 a1 bd 9a 31 c3 3c 35 1f 94 3c
       -0.07186689 -0.078896284 0.023827363 0.018081287
000340 b1 4d 03 bd 2f 15 b7 3b c5 9a 2f bc c8 3b 0a 3d
       -0.032056514 0.005587242 -0.010718052 0.033748418
000350 82 8c 49 bd 54 a5 af bd 7b b7 66 3d 35 eb 85 3d
       -0.049206264 -0.08576456 0.056327324 0.06539003
000360 88 f3 cc 39 2d f0 88 bd e8 13 74 bd d3 07 31 3d
       0.00039091357 -0.06686435 -0.059589297 0.043220352
000370 c9 f0 eb 3c 18 d1 c6 bc 91 1a 18 3d 16 a7 fe bc
       0.028801339 -0.024269626 0.03713471 -0.031085532
000380 2f 8e 87 3d 77 d0 1f 3d 3b 7a 49 3d de 3b 5a bd
       0.06618916 0.039017167 0.049188834 -0.05327975
000390 42 29 16 3c 2f cf 5c 3d 0c 4c 86 3d 5e b3 0e bd
       0.00916511 0.053908523 0.065574735 -0.034839027
0003a0 ad c7 df bc a6 e7 92 bb dd 3f f7 3a 21 af 1b bd
       -0.027316893 -0.004483181 0.0018863637 -0.038008813
0003b0 84 b3 80 3c a3 64 92 3d 59 21 eb bc 99 f2 cf bd
       0.0157106 0.07148101 -0.028702425 -0.10153694
0003c0 5d 8d af 3d dc 8d f9 3c c1 ca 42 3b 87 e0 6d 3d
       0.08571885 0.030463152 0.0029722902 0.058075454
0003d0 6d ff 93 3d 93 2b 66 bd c9 3e 85 bc 29 f8 bb bd
       0.07226453 -0.0561939 -0.01626529 -0.09178192
0003e0 4a 3f 51 3d f3 b7 86 bb af 52 35 bd 08 74 1c 3d
       0.051085748 -0.004111284 -0.044268306 0.038196594
0003f0 f1 19 27 3d af 2c 8f bd 19 19 8f 3d 03 37 81 bc
       0.040796224 -0.069909446 0.06987209 -0.015773302

fc21.bias f4 [20]
000000 a7 0a 03 bd 78 d3 1c bd d4 3b 94 3d 26 ee 4d bd
       -0.03199258 -0.03828761 0.07237974 -0.050275944
000010 ea 23 e7 bc ed 4e ca bb b7 80 8f bd a1 e1 13 bd
       -0.028215367 -0.0061739595 -0.07006972 -0.03610385
000020 36 cd 91 3d fd eb 8d 3d de a6 85 ba 62 c8 1f bd
       0.07119219 0.06929777 -0.0010196825 -0.03900946
000030 a6 32 13 bc 6c 16 17 3d a8 42 0a bc 2f 20 9f bc
       -0.0089842435 0.036886618 -0.008438744 -0.019424526
000040 66 14 83 bd bf cf 82 bd 60 1e 88 bd c9 78 cf bc
       -0.06400375 -0.06387281 -0.066464186 -0.02532615

fc22.weight f4 [20, 128]
000000 3e a7 8a 3d a2 6d 9a 3d ee 07 3a 3b 68 9e 90 3d
       0.0677018 0.07540442 0.0028386074 0.070614636
000010 40 82 7e bd f3 bd 97 3d dc 68 67 3d 5f 00 2f bd
       -0.062135935 0.07409277 0.056496486 -0.042724963
000020 66 3d ce bc 08 9a 56 bc 22 74 b8 bc b1 6f 0f bd
       -0.025175761 -0.013098247 -0.022516314 -0.035018627
000030 c5 bf 07 3c 07 75 06 bd e6 53 38 3d ba 5d 6f bc
       0.0082854675 -0.03282645 0.045001887 -0.0146097485
000040 a3 8f 92 3d d9 06 8f 3c 76 37 8b 3d d0 8f 75 bd
       0.07156303 0.01745932 0.06797688 -0.059951603
000050 16 60 4c 3c ba 90 c6 bc 6d a4 e1 3c f3 73 4f 3d
       0.012474081 -0.024238933 0.027544225 0.050647687
000060 36 05 b0 3c a4 cf 17 bd 93 b9 b0 3c dd bf 82 bc
       0.02148686 -0.037063256 0.021572864 -0.015960628
000070 9c d8 b0 bb d1 77 4f bd 6d 09 9b bd 51 5f 97 bd
       -0.0053969156 -0.050651375 -0.07570157 -0.07391227
000080 44 f4 5e bb b0 ba e6 39 b9 9d bb 3c 37 a4 63 3d
       -0.0034020105 0.00044008112 0.022902356 0.05557653
000090 d8 b9 46 bd 9d 88 d9 bb 51 d6 4b bd 41 bf e5 3b
       -0.04851708 -0.0066386 -0.049764935 0.0070113246
0000a0 b5 54 37 bd 05 eb 43 bb cf 80 6e bc 5b 15 d4 3c
       -0.044758517 -0.0029894721 -0.014557078 0.02588909
0000b0 2d 70 fc 3b 80 ed 2d 3d 00 ea f0 bc 09 23 2e bd
       0.007703802 0.042462826 -0.029408455 -0.04251388
0000c0 eb b1 f0 3b ad 67 b1 bc a0 d8 b9 bc db 3e c1 ba
       0.007345428 -0.021655882 -0.022686303 -0.0014743464
0000d0 9b 40 35 bd e3 75 0e 3d 50 63 31 3c 35 7e 18 3c
       -0.044251066 0.034780394 0.010826901 0.009307434
0000e0 d4 f5 49 3d d1 ee 17 3a 25 16 05 bd 05 14 50 bd
       0.049306706 0.0005795779 -0.03249182 -0.050800342
0000f0 c0 7d 89 3d a1 4b 41 bd 9d ec b2 3c f3 fc 8a 3d
       0.06713438 -0.047191266 0.021841342 0.067865275
000100 25 4f 80 3d b2 81 57 3d c3 16 18 3d 43 2b 82 3d
       0.062650956 0.05261392 0.037131082 0.06355908
000110 0a 6c 2d bd 64 08 6e bd 32 c3 44 bd e4 77 51 bc
       -0.042339362 -0.05811347 -0.048037715 -0.012784932
000120 18 d5 47 3d 89 16 06 3a 3a ad 24 3d 83 e0 b5 3c
       0.048787206 0.00051150523 0.040204264 0.022201782
000130 57 e7 f3 3c f7 14 76 bd ec 2b d4 3d e3 8a 31 bc
       0.029773397 -0.060078587 0.1035994 -0.010836336
000140 84 d8 cf bc 04 17 6f 3d 97 fb 87 3d 3a 62 85 3c
       -0.025371797 0.05837156 0.06639784 0.01628219
000150 6f 91 11 3d 8f 18 2b 3c 12 7a 85 bc 2f 84 36 bd
       0.035539087 0.010442867 -0.01629356 -0.044559654
000160 df 73 36 3c eb ec 8d bd f7 3d 51 bd a5 fc e3 3c
       0.011136024 -0.06929954 -0.051084485 0.027830431
000170 ff f2 79 bc 46 37 be bd ca ea 66 3c 82 68 8d bd
       -0.015255689 -0.09287886 0.014094064 -0.06904699
000180 64 8a aa bc 27 ec 22 3d 70 74 0f bd 98 77 10 bd
       -0.020817943 0.039775994 -0.035023153 -0.035270303
000190 85 6b b4 3d e5 b0 41 bd 69 1d a0 bc e2 6c ad 3d
       0.0880957 -0.04728784 -0.019545274 0.084680334
0001a0 81 60 1f 3d 7b 99 21 bd c5 9c 48 3d 17 ac 73 3d
       0.038910393 -0.03945301 0.048977632 0.05949029
0001b0 b6 7d 8e bc 42 b6 80 bc e7 3c 8e bd 9e 73 14 3d
       -0.017393928 -0.015711907 -0.0694521 0.036243074
0001c0 55 08 6d bc c3 7c 25 bd 51 3d 04 bd e9 90 7a 3c
       -0.014467319 -0.040402185 -0.03228504 0.015293338
0001d0 6e 5a 80 3d 80 41 87 bd 40 ca 96 3d d2 5f 89 bd
       0.06267248 -0.0660429 0.07362795 -0.067077294
0001e0 3c cf e4 3c b8 32 6e 3d 2a 14 e5 bc 04 7a 34 3d
       0.027930848 0.058153838 -0.027963717 0.044061676
0001f0 0a 68 8c 3d 3b 19 38 3d 45 c6 b4 3c 14 d8 90 bd
       0.068557814 0.044945937 0.022067199 -0.07072464
000200 6d af 98 bc 3c f4 21 bc 85 c2 94 3d d1 de 48 bd
       -0.018638337 -0.00988489 0.07263664 -0.04904062
000210 96 17 25 3d 3b 49 e1 3c ee de 82 ba f3 a2 3a bd
       0.040305696 0.02750074 -0.0009984651 -0.045565557
000220 57 3c 9c 3d e5 e6 44 bd a9 34 ce bc e8 99 78 3b
       0.076286964 -0.04807176 -0.025171595 0.0037933532
000230 d1 13 26 3d cc 6d 4a 3d bd 58 91 bc e7 ec 28 bc
       0.040546242 0.049421117 -0.017742509 -0.010310388
000240 39 9e 66 3d c4 02 90 bd 1d 7e b2 3d 54 49 60 3d
       0.056303237 -0.070317775 0.087154604 0.05475743
000250 12 88 9f 3d 27 29 2f 3d 14 50 07 3d db d5 74 bd
       0.07789625 0.042763855 0.033035353 -0.05977426
000260 68 37 cd 3c 92 5c 0f bd 23 ef 56 bc 56 fe 11 bd
       0.025050834 -0.03500039 -0.013118538 -0.035642944
000270 bb 60 8d bd 10 10 93 bd 40 44 26 bd 82 2d 86 3c
       -0.069032155 -0.07180798 -0.040592432 0.016379122
000280 d6 eb 7b bb 23 79 c2 bb 6b 16 18 3d bd 3b 51 3d
       -0.003844013 -0.005934851 0.037130754 0.05108236
000290 2e ff 7c 3d 7f f5 d1 bc 55 91 98 bc ce 86 3c 3d
       0.061766796 -0.025629757 -0.018623987 0.046026997
0002a0 41 fe 59 bd f1 04 97 bd 6c 33 9c bd 59 1b c1 3c
       -0.05322099 -0.073739894 -0.076269954 0.02357261
0002b0 44 03 22 bc 48 f3 e8 bc 5c 86 8a bd 00 6c 51 3d
       -0.009888474 -0.028436318 -0.06763908 0.051128387
0002c0 b1 bd 67 3d 0a 22 24 bd 64 a9 77 bd 46 01 84 3d
       0.05657739 -0.040071525 -0.060464278 0.064455554
0002d0 fc c1 41 3d 93 3c 9f 3d 06 77 66 bc 95 88 d9 3c
       0.04730414 0.077752255 -0.014066463 0.026554385
0002e0 41 13 a0 3d f8 58 85 bd 0a be 21 3b 04 df bf bd
       0.078161724 -0.0651111 0.0024679922 -0.09368709
0002f0 c5 b7 36 3d 85 b7 9b 3b c5 8c 04 3c 14 9f 8f bd
       0.04460885 0.004752102 0.008090203 -0.070127636
000300 d3 43 73 bd 8c 15 8a bc 3f 57 15 bd 99 e5 9b bd
       -0.059390854 -0.016855977 -0.036460157 -0.07612152
000310 d9 7b 20 3d 5b 15 a3 3d da 93 b6 bc a1 d8 c2 bb
       0.03918061 0.079630576 -0.022287298 -0.0059462343
000320 c6 97 f4 bc 4a 58 fc bb b7 c2 aa bc 91 63 f3 bb
       -0.029857527 -0.0077009546 -0.0208448 -0.0074276407
000330 13 0b ef bc 13 2b 8d bd 52 bf 6d bd fd 4c 08 bc
       -0.029180085 -0.068929814 -0.058043785 -0.008319137
000340 97 60 bc bd 22 3d 80 3d fe 8e 55 3d b3 04 8f 3d
       -0.091981106 0.0626166 0.05213832 0.06983318
000350 f0 d1 14 3a 3c 2f 12 3d 84 f2 d1 3c dd 3d d5 bc
       0.0005677035 0.035689577 0.025628336 -0.026030475
000360 d4 7c 30 3d 39 6d 0e 3d 03 f6 98 bd 59 8f e7 3c
       0.043087795 0.03477213 -0.07468798 0.028266596
000370 5f f0 b4 3c 05 36 5e 3d b5 fa 4b bd 5b 0e 84 bd
       0.022087274 0.054250736 -0.04979964 -0.064480506
000380 03 8b 1e bd ff 67 87 bd 18 33 dc bc ef 83 d0 bc
       -0.03870679 -0.066116326 -0.026879832 -0.025453536
000390 65 a3 46 bc dc 2f 8a bd fe b7 25 3d e7 55 45 3d
       -0.012123917 -0.0674741 0.04045867 0.048177626
0003a0 8c 18 a9 3b 30 66 99 bd 01 22 aa bd 4a 60 a9 3d
       0.005160397 -0.07490194 -0.08307267 0.08270319
0003b0 36 24 93 3c 10 66 10 3d 66 9b ac 3c c8 49 56 bc
       0.017961603 0.035253584 0.021070193 -0.013079114
0003c0 94 b2 8c 3d 3e 2f 11 bd 62 47 4b bd 1f 13 09 3d
       0.068699986 -0.035445444 -0.049628623 0.0334655
0003d0 5a 35 4a 3c 46 e2 c9 3d 1c 37 91 bd 99 cb 51 bc
       0.012341822 0.09857611 -0.070905894 -0.012804889
0003e0 6d 54 09 3d ff 5f d6 bc d4 0e b4 3d 92 64 5c 3c
       0.03352778 -0.026168821 0.08791891 0.013451712
0003f0 e4 fd b6 bd e1 ce 06 bd 4e fc bd 3b 25 f0 81 3d
       -0.089351445 -0.03291214 0.0057978993 0.06344632

fc22.bias f4 [20]
000000 cb a8 e1 3c 14 26 4c 3c 8f c6 5c 3c 4e e2 37 bd
       0.027546307 0.01246025 0.013475074 -0.044893555
000010 4e ac 70 3d c7 05 9b bd 94 85 7a bd 13 13 8f bd
       0.058758073 -0.07569461 -0.061162546 -0.0698606
000020 e5 8b fc 3c 9b 70 88 bd 03 6c 93 3d 26 a5 13 bd
       0.030828426 -0.06662103 0.07198336 -0.03604617
000030 1b bb ff 3c 86 20 47 3d 58 a7 1c 3d e4 2d 04 3d
       0.031217149 0.048615 0.03824553 0.032270327
000040 bc b1 86 bd bc c4 e5 bc a7 96 28 3d 3b 72 44 3d
       -0.06576869 -0.028047912 0.0411593 0.0479605

fc3.weight f4 [128, 20]
000000 70 de 38 be 0f 35 58 be dd 2b 61 ba ef 32 de 3d
       -0.18053603 -0.2111399 -0.0008589605 0.108495586
000010 97 39 f1 bd 60 1f c5 3d 25 11 29 be 31 bc ed 3d
       -0.117785625 0.09625125 -0.16510446 0.1160816
000020 a9 08 10 be 74 e8 95 3b d4 39 01 bb 5d 12 42 3e
       -0.14065804 0.0045748297 -0.0019718306 0.18952318
000030 1d e3 1b bc 75 1c cc 3d 71 a4 f9 bd 6f fe 6a 3e
       -0.009514597 0.09966365 -0.12189568 0.22948621
000040 af 30 80 3c ef df 15 be 98 69 03 be 0d 40 f3 bc
       0.015648214 -0.14636205 -0.1283325 -0.029693628
000050 74 db 2a 3e c0 df a0 bd 74 46 2b 3e b8 76 b6 3d
       0.16685277 -0.07855177 0.16726094 0.089093626
000060 89 39 c1 bc e2 1e 26 bc 9d 2d ce bc 3a 60 cc bd
       -0.023587005 -0.010139199 -0.025168234 -0.09979291
000070 6f c3 01 3e db b8 06 3d 26 dc 1d 3e c6 4d 24 3e
       0.12672208 0.032891136 0.15416011 0.16045293
000080 20 a8 e2 bd 11 b0 8d bd b7 b9 7e 3d 57 50 88 3d
       -0.110672235 -0.069183476 0.06218883 0.066559486
000090 6d ac fc bb 37 29 2e bd a2 a9 97 bd b9 34 66 bd
       -0.0077109844 -0.042519774 -0.07405402 -0.056202624
0000a0 31 11 2e be 38 52 4a be e9 ee ce 3c f5 97 c0 3c
       -0.16998746 -0.19757926 0.025260406 0.023509959
0000b0 9d c6 25 bd b8 41 23 be d8 f1 46 be a4 fd d3 3d
       -0.040472616 -0.15943038 -0.19428194 0.103511125
0000c0 3b b7 12 be 6a f0 3b be 88 71 13 3e bd fb e5 3c
       -0.1432771 -0.1835343 0.14398777 0.02807414
0000d0 71 8a 1e 3e 5a fb 30 3e 45 a9 19 3d d6 9a 01 be
       0.15482499 0.17283383 0.037514944 -0.12656721
0000e0 a9 9b 47 3d 95 f0 ef bd 26 0d cf bd 34 43 17 3d
       0.048732433 -0.11715809 -0.1010993 0.036929324
0000f0 9f 82 a4 bd a1 70 11 be 96 b0 25 bd 4f 75 5a be
       -0.080327265 -0.14203121 -0.04045161 -0.21333812
000100 33 bb 0d bc d9 28 b7 bd 15 0d 5e bd 7c 67 0f be
       -0.008650589 -0.08943338 -0.054211695 -0.1400432
000110 11 52 5b be 1c 48 50 3e fd c7 1b 3d 12 dc b0 bd
       -0.21418025 0.20340008 0.03803252 -0.08635725
000120 5e 3f 19 be 76 90 e1 3d c2 fe b4 bc e2 01 2d be
       -0.14965579 0.11013882 -0.022094134 -0.1689525
000130 ad 8e 41 be 96 12 4e 3e 62 05 c9 3d ae d2 50 3e
       -0.18902083 0.20124277 0.0981548 0.20392868
000140 5f cf fc bd 3b 79 0f 3e f6 9c 42 be c9 f7 25 bc
       -0.123442404 0.1401109 -0.19005188 -0.010129877
000150 6d 9e af bd aa c7 e9 3d 18 39 4b be 41 ec c8 3d
       -0.08575139 0.11415036 -0.19845998 0.09810687
000160 9f c7 2f 3e bd db cb bd a2 df 96 3d a7 3d 2c 3e
       0.17165993 -0.09954021 0.07366873 0.16820394
000170 ab d0 a1 bd 6b 38 a4 bc 34 8d 2a 3e 59 d6 b2 bd
       -0.079011284 -0.020046433 0.16655427 -0.0873229
000180 e4 df e5 bd 24 5e 34 3e 97 00 1d 3e d8 32 0f 3e
       -0.112243444 0.17614037 0.15332256 0.13984239
000190 0e d2 ac bc ea 52 9b bd 12 2d 9c 3d 85 39 ea bd
       -0.021096256 -0.07584174 0.07625784 -0.11436752
0001a0 19 7f 3a 3e 3c d9 45 be d3 25 dd 3d 96 75 26 be
       0.18212546 -0.1932115 0.1079823 -0.16255793
0001b0 08 43 5a 3e 5c 75 56 3e 24 9e 69 3e 19 0d 58 be
       0.21314633 0.20943207 0.22814232 -0.21098746
0001c0 bc 61 c4 bd 4d 37 3d 3e 5e 7a ca 3d 5f 6e 31 3e
       -0.09588954 0.18478127 0.09886621 0.1732726
0001d0 8c 4f 65 3e 61 7b df 3d 61 95 39 3d 3f cb ec 3d
       0.22393626 0.109122045 0.045308474 0.115622036
0001e0 b2 72 45 3e 18 9f 35 bc 05 de 55 bd 07 e7 b1 3d
       0.19282034 -0.011085294 -0.052213687 0.08686643
0001f0 0d e2 73 bd fe a3 45 3d 63 1c 9a bd f4 3e 49 3c
       -0.05954175 0.0482521 -0.075249456 0.012283076
000200 ee c8 b3 3d d3 0d 37 3e 25 72 3d 3e 4b 30 9b bd
       0.08778559 0.17876367 0.18500574 -0.075775705
000210 0d 40 d9 3b fe ed a6 3d 2c ed c7 3d f7 7f 40 be
       0.00662995 0.08150862 0.09762034 -0.18798815
000220 47 f5 ef bd b4 c0 83 3d 42 8a e6 3d 31 db 38 3d
       -0.11716705 0.064332396 0.11256839 0.045130912
000230 fb 0c 6e 3d e8 ea 1c bd 33 e6 f3 bc 1c fd b9 3c
       0.058117848 -0.03830996 -0.029772853 0.0227037
000240 b3 00 f2 3d 0f 55 14 3e 3f 62 91 bc 8e aa 02 be
       0.118165396 0.14485572 -0.017747043 -0.12760374
000250 29 b8 ff 3c 6c 4b d9 3d d6 15 54 3e d1 08 45 be
       0.031215744 0.10610089 0.20711455 -0.19241644
000260 5c eb 4e be d3 62 cc bc a7 20 6c 3e 27 5f ae bd
       -0.2020697 -0.024949467 0.23059331 -0.085142426
000270 67 9c 27 be 24 c5 51 be 77 40 47 3e 02 a2 04 3e
       -0.16368257 -0.2048536 0.19458185 0.12952426
000280 36 e3 0b be 19 c4 59 3e 94 90 10 be 4a bd d9 bc
       -0.13660893 0.21266212 -0.14117652 -0.026579518
000290 ad c2 82 bd 7f 4b 49 3e 2f 02 a3 3d 4f a2 30 3e
       -0.06384788 0.19657706 0.07959401 0.17249416
0002a0 cf b7 56 3d 47 20 20 bd 25 e7 90 bd ce e4 5a be
       0.052421387 -0.039093282 -0.07075337 -0.21376345
0002b0 ac dc 51 3e 39 ab 26 be e0 f7 b6 3d be dc 3d be
       0.20494336 -0.16276254 0.08933997 -0.18541238
0002c0 9c 2f e3 bd 9f 62 38 3e 77 03 92 3d 1b b5 0f 3d
       -0.11093065 0.18006371 0.07129567 0.035084825
0002d0 b9 54 e2 bc ef 75 c4 3d 30 f7 d8 bb ab fa 94 bd
       -0.02762829 0.095928065 -0.006621264 -0.072743736
0002e0 66 48 26 3e 01 ab 33 3e 67 45 24 3e 55 16 d3 bd
       0.16238555 0.17545702 0.160421 -0.10306994
0002f0 44 90 30 bd b3 ca 1c be dc 66 27 be a8 61 ba 3b
       -0.043106332 -0.15311699 -0.16347831 0.005687911
000300 55 bd 72 3e cc 06 9e bd 8c f5 3e bb 8c 45 6b 3e
       0.23705037 -0.0771614 -0.0029138057 0.22975749
000310 70 dd 4b 3d a6 27 2a be f5 20 bf bd 79 57 17 3e
       0.049771726 -0.16616687 -0.09332458 0.14779462
000320 83 eb 27 be fc f3 9b 3d be 8a 4f 3e 3a e5 44 3e
       -0.16398434 0.07614896 0.2026777 0.19228068
000330 da 18 b1 3d 2c 45 b1 bd 09 bb 2b 3e 68 5f 2c 3e
       0.08647318 -0.086557716 0.16770567 0.1683327
000340 9e d6 d2 3d db 69 26 3e 67 18 57 3d 91 2e 4e bd
       0.10294841 0.16251318 0.052513506 -0.050337378
000350 04 78 3d 3d b9 8f 8d bd 4d 75 40 bd 44 b5 f4 bd
       0.046257034 -0.069121785 -0.046986867 -0.11948636
000360 d5 02 4d 3e 85 6b 84 bd c1 b8 f1 3d b7 21 37 bd
       0.20020612 -0.0646582 0.11802817 -0.044709887
000370 36 e2 46 be d6 96 fb bd 08 20 d9 3c ef bf 6c 3e
       -0.1942223 -0.12284629 0.026504532 0.23120092
000380 a1 fa 11 bd 76 e9 a4 ba 15 fa 2c be 72 45 2d 3e
       -0.03563941 -0.0012581784 -0.16892274 0.16921023
000390 3a bf bc bd f8 c6 e9 3d b9 9a 65 bc db d4 45 be
       -0.09216161 0.114149034 -0.01401394 -0.19319479
0003a0 d1 c7 f2 3b a1 ac c0 bd a8 40 ad bd 4c e0 d9 bd
       0.007409074 -0.09407926 -0.08459598 -0.10638484
0003b0 e8 b0 3a 3e 1e 2c 57 be 4c d3 a2 bd c0 2d 7f bd
       0.18231547 -0.21012923 -0.07950458 -0.06229949
0003c0 db 38 42 be 79 b5 bd bd 38 83 88 3d 60 b3 14 be
       -0.18967001 -0.09263129 0.06665653 -0.14521551
0003d0 34 c8 22 3e 8e 41 d8 3d f5 d9 23 be 22 36 2d 3e
       0.15896684 0.105593786 -0.16001113 0.16915181
0003e0 5e d2 e0 bd 4d a5 54 bd ef 99 6a 3c 8e ce 02 be
       -0.10977624 -0.051915456 0.014318927 -0.12774107
0003f0 67 37 5f 3e 7f 04 f9 bc 53 ed 32 3e 27 fe 27 3e
       0.21798478 -0.030397652 0.17473345 0.16405545

fc3.bias f4 [128]
000000 a4 be 0b 3e e9 28 8f 3d 27 b8 a8 3d 05 73 0b 3c
       0.13646942 0.06990225 0.08238249 0.0085113095
000010 81 c7 c3 3c 4c ec 58 bd 8d d2 20 bd ae ef 02 be
       0.023898842 -0.052959725 -0.039263297 -0.12786743
000020 59 37 de bd e7 da 5f 3e 90 10 6e 3d 3c 2f 1e 3e
       -0.108504005 0.21860848 0.058121264 0.15447706
000030 46 ec 21 be c0 37 12 3e ce 8e 03 be b5 3f 8a bd
       -0.15812787 0.1427908 -0.12847444 -0.067504324
000040 59 10 36 3e ad 24 5f 3c be a8 21 3e 76 a3 db bd
       0.17779674 0.013619584 0.15787026 -0.10724537
000050 4b 29 ac bd 42 1a 1a be 29 73 5a be ad 5d 59 3e
       -0.084063135 -0.15049079 -0.21332993 0.2122714
000060 d4 f9 32 be fa 9b 1c bc 9d 9c 1e 3e 73 70 2a bc
       -0.17478114 -0.009558672 0.1548943 -0.010402787
000070 f3 39 53 3d 7a 5e 4d 3e 6e 51 6e bc 60 c4 d5 bc
       0.051568937 0.20055571 -0.014545782 -0.026094615
000080 93 45 39 3e 38 84 d0 3d 70 cf 45 3d f7 88 49 bd
       0.18092947 0.10181469 0.04829353 -0.049202885
000090 6c ce cd 3d 3d 24 d1 3c 80 37 27 bd 1a 51 03 be
       0.100491375 0.025529975 -0.040824413 -0.12823907
0000a0 b8 c8 37 be 41 e2 b7 3d e7 29 3f be 3b be 1b be
       -0.17947662 0.089787014 -0.18668328 -0.15209286
0000b0 b3 84 31 be 1e 09 ff 3d 50 0c 9d 3d fb 1f 35 be
       -0.17335777 0.12452911 0.07668364 -0.17687981
0000c0 c9 ae 2f be 4d 98 29 bd 0f 39 da bc 1f b8 01 be
       -0.17156519 -0.04140501 -0.026638536 -0.12667893
0000d0 48 6d e0 bc ec 73 d2 3c c1 91 61 3d 0c a4 64 3e
       -0.02739586 0.025690041 0.055070642 0.22328204
0000e0 c9 e7 eb 3d 4d 94 32 be 5d 95 25 3d c7 09 da 3d
       0.11518819 -0.17439385 0.040425647 0.10646396
0000f0 6d a9 cf bd 27 a1 91 3d b0 74 6b be 15 2a fc bb
       -0.10139737 0.071108155 -0.22993731 -0.0076954463
000100 0a 0e 79 3c 05 5b eb bc 99 a4 39 3c 7d a2 23 bd
       0.015201101 -0.028729925 0.011330747 -0.039949883
000110 cc 14 41 be b7 39 a9 bd ec ec 06 3d ba 9f 48 be
       -0.1885559 -0.08262961 0.03294079 -0.19592181
000120 a6 ec b9 3d 19 ab c1 3c 54 35 8e 3d fc 2c ef bd
       0.0907834 0.023641156 0.06943765 -0.11678502
000130 3e a3 12 3e 52 a5 4e be dd 39 8f 3d ea 69 60 bc
       0.14320084 -0.20180252 0.069934584 -0.013697127
000140 f4 90 4d be f8 a3 51 ba 1f 1d 15 be ea 43 66 be
       -0.20074826 -0.00079971505 -0.1456189 -0.22486845
000150 0d 78 f8 3d c1 43 d4 3c c4 8a ae bd e3 16 1f 3d
       0.12132273 0.025911214 -0.08522561 0.038840186
000160 df a4 c0 3d 6a a0 67 bd 16 37 29 be c9 1b 41 bd
       0.09406447 -0.056549467 -0.1652492 -0.04714564
000170 43 96 0c be b5 64 e6 bd d9 e5 1f 3e d1 bf 26 3e
       -0.13729195 -0.11249677 0.15615024 0.1628411
000180 82 74 66 3e 45 29 cd bc bb a0 1e be 17 04 11 be
       0.22505382 -0.025044093 -0.15491001 -0.14161716
000190 aa 98 a4 3d 66 1c fc bc df f7 c5 3d ad c3 3d 3e
       0.08036931 -0.03077526 0.09666418 0.18531676
0001a0 02 e3 cd bc 73 2d 18 be ce d0 c2 3d 26 67 13 3c
       -0.02513266 -0.14861088 0.095124826 0.0089967605
0001b0 ba c1 d2 bd 3b 52 59 3e 40 37 ba bd b2 f0 cd 3d
       -0.10290857 0.21222775 -0.09092569 0.100556746
0001c0 69 54 c2 3c 48 b0 3b 3e 32 db 38 3e 92 f9 29 3e
       0.02372189 0.18328965 0.18052366 0.1659911
0001d0 db bc 67 bd 6b 86 84 3d b6 ba 2e 3e 9b b1 a9 bd
       -0.05657659 0.06470951 0.17063412 -0.08285829
0001e0 37 71 2b bc a5 61 47 3e aa 01 22 bd e0 0b a4 3d
       -0.010464004 0.19470842 -0.03955237 0.080100775
0001f0 b0 38 3d 3d a5 18 4a 3e a7 fa 5c 3d 2a 57 ec 3d
       0.04619664 0.19735964 0.05394998 0.11540063

fc4.weight f4 [8, 128]
000000 2f 03 86 bd 57 ec 8f 3d 84 ee 00 3d 00 8b 6a 3d
       -0.06543576 0.070275 0.031477466 0.057261467
000010 93 c1 51 bd 85 9d c9 bb 24 b8 15 bd d2 3c 75 3d
       -0.051209997 -0.006152811 -0.036552563 0.059872456
000020 a3 98 74 3d ce f9 1f 3d 42 a5 57 bd 80 92 09 bd
       0.05971588 0.03905659 -0.052647837 -0.03358698
000030 42 fa 85 bd 58 86 d6 bd 47 49 71 3c 5d 33 ff bc
       -0.065418735 -0.10474843 0.014726943 -0.031152422
000040 54 7f 10 bd 07 d7 07 3c 14 8d 9b 3c c9 1a 34 3d
       -0.03527768 0.008291013 0.01898817 0.043970857
000050 f5 ed 65 bc ed 48 84 bd 99 85 ee bb e3 87 fc 3c
       -0.014033784 -0.06459222 -0.0072791097 0.030826515
000060 4b 28 44 bc 47 9d 2d 3c 67 1b b6 bc e6 d3 6f 3b
       -0.011972497 0.01059658 -0.022229863 0.0036594807
000070 63 da 4f bd ec 49 8e bc ba 78 d6 3c 3f e6 26 bd
       -0.05074538 -0.017369233 0.026180614 -0.040746924
000080 d8 48 fe bc 48 d7 5b 3d cf 62 97 bb 43 8f 95 bd
       -0.031040594 0.053672105 -0.004619933 -0.07302716
000090 c9 94 81 bd 99 4f ab bc 3e 5f af bd 99 cd 5c 3c
       -0.06327207 -0.020911979 -0.08563088 0.013476753
0000a0 ea b5 4c 3d c0 1c 77 bd c8 e3 04 bc 86 e8 33 3c
       0.049978174 -0.060330153 -0.008110948 0.010980731
0000b0 da 7c aa bd f1 5d 80 ba 1e 7e 36 bd 12 fa a7 bd
       -0.08324595 -0.0009793622 -0.04455387 -0.08201994
0000c0 e6 35 90 3d 72 0e 32 bb 74 d6 ab bc be b1 54 3d
       0.0704153 -0.0027169255 -0.020976283 0.05192732
0000d0 12 4c 2d bc ff 82 3f bd a6 a4 bd bd cc d0 a8 bd
       -0.010577219 -0.046755787 -0.0925992 -0.0824295
0000e0 b7 da bb bd fa e7 97 bb fd fa de 3b 13 d7 49 3d
       -0.09172576 -0.004635808 0.0068048225 0.049277376
0000f0 a1 1c 56 bd 4e ad 5b ba b4 76 1f 3c 54 25 b6 bc
       -0.052273396 -0.00083800114 0.009732891 -0.022234596
000100 44 51 c2 bd 72 22 93 bd fc 1a 9d bc 25 0d 44 bc
       -0.094881564 -0.07184304 -0.019177906 -0.0119660245
000110 8c 01 a0 3c c2 39 0d bd ec ee b2 bd ff 8c 50 bd
       0.019531988 -0.03447891 -0.08736977 -0.050915714
000120 ac 0b 31 bd f2 97 05 3d 60 f4 03 bd 52 61 46 bd
       -0.04322402 0.03261561 -0.032215476 -0.048432656
000130 7c 96 1c 3d ae 7a fb 3b 11 c6 2d 3d 13 67 b4 3b
       0.03822945 0.0076745367 0.04242522 0.0055054515
000140 9f f3 ab bd 95 eb d3 bc 69 5b c6 bd 71 b2 06 bd
       -0.083960764 -0.02586917 -0.09685404 -0.03288502
000150 f8 40 a3 3c aa 82 b7 bc fd 0b 46 3d 62 0e ac bd
       0.01992844 -0.022401173 0.048351277 -0.08401181
000160 1b a6 ac bd d8 e0 56 3d 73 8e 72 bd dc 45 03 bd
       -0.084301196 0.05246052 -0.05921788 -0.032049045
000170 5d f4 4a 3d 82 82 22 bd e8 5a 2a 3c 8f 75 60 bd
       0.04954945 -0.039675243 0.01039765 -0.054799613
000180 18 57 09 3d 82 51 0d 3c 3a a2 15 bd 55 e2 9f bd
       0.033530325 0.00862539 -0.036531664 -0.07806841
000190 91 b9 53 bd 07 5b 8d 3d ce 7f b7 bd b5 60 fb 3c
       -0.05169064 0.06902128 -0.08959924 0.030685762
0001a0 f1 54 99 bc ae e9 d1 bd 4d 6d 83 3d 12 08 7a bd
       -0.018717261 -0.10249649 0.06417332 -0.061042853
0001b0 41 7b 70 3d ca 3e 1d bd 69 1c 69 3d 2f 82 98 bd
       0.058711294 -0.03838996 0.05691186 -0.074467055
0001c0 ad 13 d3 bd ec b0 7a 3d 94 4c bb ba 49 8e 79 bd
       -0.10306487 0.061203882 -0.001428979 -0.06092671
0001d0 43 d4 74 bc e1 3d c9 bd b8 32 3d 3c 00 44 2b 3d
       -0.014943185 -0.098262556 0.011547737 0.041812897
0001e0 bf 7f 0c bd d4 77 33 3d 02 ca 46 3d ac 86 c6 bd
       -0.034301516 0.04381545 0.048532493 -0.09693655
0001f0 36 26 5f bc e7 3a 3b bd 76 d0 a8 bd 5e bb 4d bd
       -0.01361995 -0.04571047 -0.08242886 -0.050227515
000200 17 9b 53 bc ae 1f 0a 3d 81 c4 2b 3c 76 7e 6a bc
       -0.012915394 0.03372162 0.010483862 -0.014312377
000210 cb fe 1a 3d c6 68 8d 3c 75 9f dc 3c 3c 01 62 bd
       0.037840646 0.017261874 0.026931504 -0.05517696
000220 9d c9 22 bd cd 3c 9e bd 6c e4 4d 3d 6c c1 8e 3d
       -0.039743055 -0.077264406 0.05026667 0.06970486
000230 8d 90 0f 3d a9 0a a9 bd ab d2 cf bd d3 8b 4b bc
       0.035049964 -0.082539864 -0.101476036 -0.012423473
000240 60 d7 6c 3d 78 6f ad bd 84 ac d2 bd 4b e6 62 bd
       0.057822585 -0.084685266 -0.10286811 -0.055395406
000250 59 c0 13 bc ef 2e ea bc be 8b f8 bc 9f 9c 77 3d
       -0.009018027 -0.028586833 -0.030340072 0.0604521
000260 5b 75 7e 3d ab 94 66 3d 3b 00 02 3c fc 75 bb bd
       0.062123638 0.056294125 0.007934625 -0.09153363
000270 33 e8 a9 bb e1 7c 8a 3d 83 48 fd bc 63 b8 ae bd
       -0.005185151 0.067621 -0.030918365 -0.08531263
000280 b9 47 16 bd 45 2b 18 3c 87 d1 7b 3d 24 a0 57 bd
       -0.036689494 0.00928766 0.061479118 -0.052642956
000290 1a c6 7f 3d 43 63 8c bd 72 09 97 bd df 7e 03 3d
       0.062444784 -0.0685487 -0.073748484 0.032103416
0002a0 fc f1 7d bd cb 85 b5 3c ca f3 8d bd 33 94 90 3d
       -0.061998352 0.022158524 -0.06931265 0.07059517
0002b0 09 ac b3 bd 6d 6d cb bd 47 39 9b bd 98 fe 9b bc
       -0.087730475 -0.09932981 -0.07579284 -0.019042298
0002c0 30 68 9b 3b d7 bc 88 3c 8c 83 0b bd 32 22 5b 3d
       0.0047426447 0.016691608 -0.034061 0.053499408
0002d0 a2 a7 bd 3c f1 5a c8 bd b9 e2 6a bd 1a a1 98 bd
       0.023151223 -0.09782971 -0.057345126 -0.07452603
0002e0 a4 96 22 bb ad 85 af bd c3 ca cd bd 68 88 ae 3c
       -0.0024809027 -0.085704185 -0.10048439 0.021305278
0002f0 ee 8f 87 bd ff f7 96 bd f9 97 9a bb b4 0f 8e bb
       -0.06619249 -0.0737152 -0.0047178236 -0.004335368
000300 7d 2d d5 bd 00 b9 13 3d 44 3e 06 3d cc f6 86 3d
       -0.10409067 0.0360651 0.032774225 0.065900415
000310 c8 80 85 3d 60 55 9f bd ec 89 a1 bb 41 7f 88 3d
       0.06518704 -0.07779956 -0.0049297716 0.06664897
000320 76 29 10 bc a7 21 4f 3d 41 60 83 bd 2b 99 de bc
       -0.008798948 0.050569203 -0.06414843 -0.027172646
000330 d3 66 a1 bd 1e 77 a0 3c 30 13 c4 bd 8c fa 1f bd
       -0.0788094 0.01958805 -0.09573972 -0.0390573
000340 ac db bf bd 51 0f 39 bd 1f 1c 81 3d fe 70 08 bd
       -0.09368071 -0.045180622 0.06304192 -0.033310883
000350 8b ed 7f bc 5f 16 cc 3b 45 cb c4 bd 92 c6 0b bd
       -0.0156205995 0.006228253 -0.09609083 -0.03412492
000360 7f 98 55 bd e8 2c a0 3c f0 f0 f3 bc 23 83 72 bb
       -0.052147385 0.019552663 -0.029777974 -0.0037004433
000370 f0 dd ad 3b 61 e8 d6 bd c4 2b c0 3c 67 dd ff bb
       0.005305998 -0.104935415 0.02345837 -0.0078083756
000380 64 93 ab bd dd 0f 7d bd ca e1 6f bc 3c d7 95 bd
       -0.08377722 -0.061782707 -0.014641235 -0.07316443
000390 30 07 2b bd 0b 70 b8 3b b1 09 8c bd 3c d0 41 3d
       -0.0417549 0.005628591 -0.06837786 0.04731773
0003a0 b9 bc bc bd d8 c2 50 bd 08 27 b0 bc be 79 a1 bd
       -0.092156835 -0.050967067 -0.021502987 -0.078845486
0003b0 3b a7 68 3d 01 d0 7b bc 81 f5 42 3c b5 60 aa bd
       0.05680011 -0.015369416 0.011899353 -0.08319227
0003c0 9e c8 74 bd 90 e1 f9 bb 47 d3 80 bd c7 50 9e bc
       -0.059761636 -0.007625766 -0.06290298 -0.019325627
0003d0 1c f1 af bd 6b 22 cd bd 28 dd 63 bc 44 2b 9c bd
       -0.0859091 -0.1001633 -0.013907708 -0.0762544
0003e0 84 7c 01 bd f3 75 ed bb 99 51 08 3c cf d0 a3 3b
       -0.031612888 -0.0072467267 0.008320236 0.004999257
0003f0 98 54 d9 bc d5 1d 45 bd 47 99 c9 3b 43 96 1c 3d
       -0.026529595 -0.048124153 0.0061523053 0.03822924

fc4.bias f4 [8]
000000 99 6c 66 bc ba 07 9a 3c f6 76 01 3d cd fe f2 b9
       -0.014063978 0.018802512 0.03160759 -0.00046347678
000010 ab 6a 98 bc 8e a3 b1 bd cf b4 ae bd c8 66 a1 bc
       -0.01860555 -0.08673774 -0.0853058 -0.01970233
