_Models/vae_encoder.pth (torch, 43824 bytes, 10 tensors)

fc1.weight f4 [128, 8]
00000000: c4f4 12bd 50c3 083e 70f1 31be 8554 a4be
00000010: 226b 8cbe e6bf 3ebd 7508 5b3e 24e5 363e
00000020: 0724 443e 939d 12be 87b8 9cbe f5bb 21be
00000030: 0219 803e 2ea1 9b3e 7adf 54bd 9d0a c2bd
00000040: 8592 54be e851 993e 322e aabe 35a5 6ebe
00000050: a989 83be 85b0 243c 8107 0c3e a929 a43e
00000060: f992 553e 367a 803e b3e3 c03d ec32 a9be
00000070: d07b 523e 2e13 63be f7c7 4fbe 1cf8 113e
00000080: a487 efbd f83b e1bd 6c12 183d f133 27be
00000090: c1c7 97be c8ca 7dbe 6c27 40bd 4d06 fc3c
000000a0: ec47 403e f691 243e ef56 3f3e bc98 2ebe
000000b0: e36d 7bbe a04d 9cbe 66c1 3a3e b157 943e
000000c0: ee0f 92be d417 0fbe d6d5 523e 3437 8a3e
000000d0: f95b 99be e6a1 1fbe 1f18 153d 6fb6 ad3e
000000e0: d47f e1bc 54dd 18be a934 f73c 6a32 9bbe
000000f0: e7ac 693d 582c 7dbe 7a14 363e ab95 1fbd
00000100: a152 f13d 3ade a73e e09f 7b3e 34be a13e
00000110: 064a f5bd 9a0a 6a3e 59ce acbe 4c85 9bbc
00000120: abe7 9abe 4f63 00be 5471 2abe f611 24be
00000130: 33ba 193e f991 98be 133f 25be 19ba 923e
00000140: e0e3 833e e8c7 683e 7871 ec3d e806 0cbd
00000150: b7bd a43d 9f10 d7bd 22e8 943d 8da4 8ebe
00000160: 5642 9e3e 899c b9bb d1d3 fa3d 0405 5cbe
00000170: 4608 20be 45c7 8cbd bfe6 ae3e 3661 cb3b
00000180: 3ac6 9cbe 6080 59be 992b b7bc d658 63be
00000190: c36e 9d3e cec2 a53e 3fbc 653e 4070 d6bc
000001a0: 8c9b 6f3d 8297 983e cfca 3dbe 233c 963e
000001b0: ed56 73be 8129 24be c6c6 29be 67ca 39bd
000001c0: 463f afbd e252 0c3e 3621 acbe eae7 7dbe
000001d0: baa2 883e 48c0 d3bc 4166 34be 45ed 883e
000001e0: 54df d63d cc09 413e 0054 42bd 0f6c e13d
000001f0: 4ab6 913d 8066 6dbd 510b 4d3c 7559 753d
00000200: 9d53 c63d 36bb babc db7c 9e3e a4cd 0e3d
00000210: 931c 5fbc 85ca e3bd 0068 98bc 212f 553c
00000220: cc6d 973d 9c73 083d 82d6 e13d 977a d0bc
00000230: 1647 9dbe 41e9 833e 6826 e43b 158e 7cbd
00000240: 4766 863e dd9f 8dbc b387 473e f0a9 843e
00000250: 2748 853e a802 53bd da60 08bd a545 58be
00000260: df80 f1bc b5bc 2dbe ff85 3e3e c88f da3d
00000270: 5754 86be 5a36 7d3d aff9 123e 86f5 2abe
00000280: d085 26be 4aa9 44bc fd9b 9f3e 8b43 423d
00000290: 6801 7a3e a4f4 923d d8ed 8bbd 1718 8bbe
000002a0: 151e b4be a27e 48bb 2904 e1bd 6cb7 803e
000002b0: 5989 b3bd 3ae9 36bd 4f4c 263e 4f56 a73d
000002c0: 9e8d 8abe c77a 5abe 6337 4bbe 6ff0 93be
000002d0: 385f b33d 7259 533e cb9e fc3d b35b 84be
000002e0: 009f 563e 1b02 1f3e 6368 853b 13f3 203e
000002f0: 56c5 f8bc 5fd2 1f3e 2a18 48be eaef 85be
00000300: 2e32 413d 91ca 6d3e bed0 483e 1708 a0be
00000310: f96f 76be 7a84 07be 9d4f aa3d d39f 92be
00000320: f9e6 50be c6cf 3e3e fb4f 90bd 66ab f3bd
00000330: aa9f 933e af65 41be 89b7 703e 2c2c 5dbe
00000340: b041 afbc e6c6 033e 58d3 74bd 58b6 dabd
00000350: 1494 213e d5dc abbc 4d61 89bd 0cbe a7be
00000360: 1371 89be 048f 9f3d 20d8 e9bd 6498 48be
00000370: 16b6 913e 55fe a53e df4e 37be 0d80 37be
00000380: e2b8 763d be58 2c3d 2a6e 773d e372 10be
00000390: 9170 83be cb2c 463e 9147 7c3e 9152 8d3e
000003a0: 4e2f dcbc 5c8c 7b3c ca93 973e 3e9c fabd
000003b0: b5b6 723c 2810 84bd 60d0 d03c 441c 03be
000003c0: 73ec bbbe f044 b4bc c845 22bc 0abd 86be
000003d0: c81d 813e f65d 00be 228f d93d 1680 873e
000003e0: c665 0cbe b6f9 17be 5de4 a03e e995 433e
000003f0: 45ee 6c3e 01a1 73be c679 5d3e 6b26 873e
-0.035877958 0.13355756 -0.17377257 -0.32095733 -0.27425486 -0.046569727 0.21389945 0.17860848
0.19154368 -0.14317922 -0.30609533 -0.15794356 0.2501908 0.30396408 -0.051970936 -0.094746806
-0.20759018 0.29945302 -0.3323837 -0.23305209 -0.25690964 0.010051851 0.13674738 0.32063034
0.20856847 0.2509324 0.0941843 -0.33046663 0.20555043 -0.22175285 -0.20291124 0.14254802
-0.11695793 -0.10997766 0.037126943 -0.16328408 -0.29644588 -0.24784386 -0.046912596 0.030764723
0.18777436 0.16071305 0.18685506 -0.17050451 -0.24553637 -0.30527973 0.18237838 0.28973153
-0.28527778 -0.13973933 0.20589384 0.26995242 -0.29952982 -0.15589103 0.036399957 0.33928248
-0.027526774 -0.1492818 0.030176478 -0.303119 0.05704966 -0.24723947 0.17781249 -0.038961094
0.11783338 0.32786733 0.24572706 0.31590426 -0.119770095 0.22855607 -0.3375118 -0.01898446
-0.30254874 -0.12537883 -0.16644794 -0.16022477 0.15012436 -0.29798868 -0.16137342 0.28657606
0.25759792 0.22732508 0.1154508 -0.034186274 0.08043998 -0.10501217 0.07270838 -0.27859917
0.30909985 -0.0056644124 0.12247432 -0.21486288 -0.15628156 -0.06873945 0.3416042 0.006206657
-0.30619985 -0.21240377 -0.022359656 -0.22201857 0.30748567 0.32375187 0.22435091 -0.026176572
0.05849795 0.2980309 -0.18534397 0.29342756 -0.23763628 -0.16031457 -0.16579732 -0.04535904
-0.0855699 0.13703492 -0.33619088 -0.247955 0.2668665 -0.025848523 -0.17617132 0.26743522
0.10491815 0.18851393 -0.04744339 0.11006939 0.07114847 -0.05795908 0.012514905 0.059899766
0.09683917 -0.022794347 0.30954632 0.034864083 -0.0136176525 -0.11122612 -0.018604279 0.013011725
0.07393989 0.03331338 0.11027242 -0.02544908 -0.30718297 0.25763896 0.006962586 -0.061658937
0.26249906 -0.017288143 0.19485359 0.25910902 0.2603161 -0.051516205 -0.03329549 -0.21120317
-0.029480396 -0.16966517 0.18605803 0.10671955 -0.2623622 0.06181941 0.14353059 -0.16695222
-0.16261983 -0.012003252 0.31173697 0.047427695 0.24414599 0.07175568 -0.068324745 -0.27166817
-0.351792 -0.0030593057 -0.109871216 0.2513994 -0.08766431 -0.044656016 0.16240047 0.08170759
-0.2706117 -0.21335898 -0.19845347 -0.28894374 0.08758396 0.2063959 0.12334975 -0.2585121
0.20959091 0.15528147 0.0040712818 0.15717725 -0.030367535 0.15607594 -0.19540468 -0.26159602
0.047166996 0.23221804 0.19610879 -0.31256172 -0.24066152 -0.1323413 0.08315966 -0.2863756
-0.20400609 0.18633947 -0.07046505 -0.11897926 0.28832752 -0.18886445 0.23507513 -0.21598881
-0.021393627 0.12868842 -0.059771866 -0.106793106 0.15779144 -0.020979324 -0.06708012 -0.32762182
-0.2684408 0.0779095 -0.11418176 -0.19589382 0.28459233 0.32420602 -0.1790118 -0.17919941
0.06023491 0.04207682 0.060407795 -0.14106326 -0.2567182 0.19353025 0.24636675 0.27602056
-0.026878025 0.0153532885 0.29604942 -0.12236832 0.014814069 -0.06448394 0.025489986 -0.12803751
-0.36703834 -0.022005528 -0.009904332 -0.263161 0.25218034 -0.12535843 0.106230035 0.2646491
-0.13710698 -0.14841351 0.31424227 0.19100155 0.23137768 -0.23791887 0.21628484 0.26396498

fc1.bias f4 [128]
00000000: 824b d5bd 002f 6ebe 3f44 6fbe f83a 853e
00000010: bc8e b8be 696b f1bd 0a55 c0bd 9e22 13be
00000020: 770c 72be 42c9 a63e a06e 733e f7e9 82be
00000030: 85dc e7bc 1fa7 b1be c41a a83e 4db0 3ebe
00000040: c5fe 96be 5517 453e 278e 693d fc53 ad3e
00000050: ea73 81be b706 8d3e a6dd e5bd 5e50 09be
00000060: f06c 0f3e 805f 0e3d 705e 863e 4c9a f43d
00000070: f9cf babe a17c 943e 2476 193e ea01 8b3e
00000080: a405 babe 62fb 87be c046 9fbd 3943 b3bd
00000090: 14fa 70be c146 993e 1fea 94be 780d fc3d
000000a0: c836 46be 32b4 8cbe 7527 4fbc 35f1 91be
000000b0: fd84 fd3d 87f4 b5be a02a 89be 536e bbbe
000000c0: ef7a ac3e 2f17 b2be c2f1 283d c368 8ebe
000000d0: 9cca 8b3e f41d d0bd 828c 473c 48dd cfbd
000000e0: 80a6 22be ca0c 86bd b630 9a3d 0b94 263e
000000f0: d559 d0bd d9cc 993e 2282 a43d 762c 223e
00000100: 15d8 883e 85d2 00be cf8f 3ebe 4320 2f3e
00000110: 4747 a73e bdb6 b4bd 8408 3dbe 751a 07be
00000120: c90c b3be 1636 793e 8ab6 2d3d 504a 26be
00000130: 978b 393e dc53 0e3d b3bb da3c 8a90 50be
00000140: 5d67 80be 6768 10be 8783 a7be f14b b2be
00000150: 3b18 0d3e 540d 6d3e 4b04 63be 91e2 523e
00000160: a884 b83d 21f5 ff3d 3ec7 843e 1c77 1b3e
00000170: 8454 93bd a794 70be d939 16be 2eed bc3d
00000180: fd56 6f3e e616 3b3e 8022 963d 2121 88be
00000190: c307 72be e666 a63d 700c 823d 82f2 12bd
000001a0: df8b b8be 3e45 bc3d 7a2e 86be 8ac3 4dbe
000001b0: 00db a9bd 117c 28be ccfd 63be ded8 ffbd
000001c0: 3c4b b0be de9f be3d 7c40 7d3e b972 79be
000001d0: db19 7dbe 81f2 4a3e 61e0 dd3d 65f2 67ba
000001e0: b040 91bd 275d 013d 43b5 fcbd 5886 ef3b
000001f0: f901 393e b5e2 6c3e e3d4 943e 5064 aa3e
-0.104147926 -0.23260117 -0.23365878 0.26021552 -0.36046398 -0.11788065 -0.0939122 -0.14368674
-0.23637567 0.32575423 0.23772669 -0.25569126 -0.028303394 -0.34697816 0.3283292 -0.18621941
-0.2949125 0.19247182 0.057020333 0.33853137 -0.25283748 0.27544186 -0.11223917 -0.13409564
0.140064 0.034759045 0.26243925 0.11943492 -0.36486796 0.29001334 0.14986473 0.27149898
-0.36332428 -0.26558977 -0.07777166 -0.08753056 -0.23532897 0.29936793 -0.2908487 0.123072565
-0.19356835 -0.27481228 -0.012643685 -0.2850434 0.12378881 -0.35538122 -0.26790333 -0.36607608
0.3368754 -0.34783313 0.041246183 -0.27814302 0.27303016 -0.10161963 0.012179496 -0.10149628
-0.15883827 -0.06545408 0.07528822 0.16267411 -0.10173384 0.300391 0.08032633 0.15837273
0.26727358 -0.12580307 -0.18609546 0.1710215 0.32671568 -0.08823917 -0.1846028 -0.13193686
-0.34970692 0.24337038 0.04241041 -0.16239285 0.18119656 0.034747943 0.02670083 -0.20367637
-0.2507886 -0.14102326 -0.32717535 -0.34823564 0.13778774 0.23149616 -0.22169606 0.2059424
0.09009677 0.124979265 0.2593326 0.15182155 -0.071938545 -0.23494206 -0.14670505 0.09224926
0.23373027 0.18270454 0.07330799 -0.26587775 -0.23635773 0.08125095 0.063500285 -0.035875805
-0.36044213 0.091928944 -0.26207334 -0.20094123 -0.08293724 -0.16453578 -0.22264785 -0.12492536
-0.344324 0.09307836 0.2473163 -0.2436017 -0.24716894 0.1981907 0.108338125 -0.000884807
-0.07092416 0.031582978 -0.123392604 0.007309716 0.18067159 0.23133357 0.2906867 0.33279657

fc21.weight f4 [20, 128]
00000000: def5 babc ef28 8bbd 8c76 94bd 6557 92bd
00000010: 15ac 333d 47f3 5c3b 19f3 05bd 0887 be3d
00000020: b7db 75b9 974f 1e3c 5338 bb3c bf3d 24bd
00000030: 6367 e53c 3edc 853d 1e31 843c abf0 e2bc
00000040: 3b4d 82bd ef51 da3c 009c 453d 08b8 963d
00000050: a494 78bd 856d a9bd 5942 95bd bf5a 4e3d
00000060: 03d7 70bd e1c4 8d3d d90c 943c e2d2 b13c
00000070: d077 3f3d 7355 6cbd 7c19 213c d5ab 76bd
00000080: 47f1 b53d 630b 733c d311 93bd 142a 34bd
00000090: b294 6cbc d137 393d 85c4 12bd c437 783d
000000a0: 8ca0 66bc 9752 883d 7b66 2bbd 5544 8f3d
000000b0: f18b 10bd 4c27 9dbd b2b8 543d 9a0e 30bd
000000c0: 9914 83bc 956b 1a3d cc5b 92bd bb9d 34bd
000000d0: bcde b3bd 356b 07bd 885e 8dbd f384 96ba
000000e0: 57e0 a23c c564 473c 4841 07bd 601c 78bd
000000f0: 4ba9 8bbd 1585 87bd 9949 42bc 44a5 dd3c
00000100: 4d98 503d fdf5 40bd b89d aa3d 24f0 c739
00000110: 77a4 49bc 9fd1 95bd 6cee c3bc b783 84bd
00000120: fb42 29bd 8b5a 973d fd76 99bd 4731 adbb
00000130: 4b16 9a3d f043 823d c2f7 b2bd 2e3b ac3d
00000140: ac91 8b3d 34b4 373d c227 6c3d 40f4 883c
00000150: e985 69bd 2145 9b3d 13ac 173d 9dee ffbc
00000160: da5e 9bbc c75e 2f3d 1a70 c33c 4421 af3d
00000170: a0d8 84bd a8cd 23bd ca2d 8f3d dd8e 08bd
00000180: 1ab4 e9bc f72a 7d3d 07a7 02bc 7ef8 39bd
00000190: 893a 29bd eae7 5c3d e395 2e3d e78a 9dbd
000001a0: b7ea 69bd 6636 fc3c af9e 9abd 6121 8abd
000001b0: 3a65 143c 172f 18bd 32f6 bcbd b461 6e3d
000001c0: d124 643d fd7d 7dbd 9367 673d 1dd4 85bd
000001d0: 1213 7ebd 584d 713c 5960 da3c 8f1e 70bd
000001e0: 0e95 873d 3885 4e3d ea12 bfbd 0931 c53a
000001f0: b222 653d 6b50 db3b f5d8 963d aa9e be3c
00000200: 8578 40bd 969e 0abd b5db 753c 813f 463b
00000210: 828e c33c ccb7 b9bc a8e2 b33c 5989 733c
00000220: b7ad 0bbd 98fe 7fbd 8156 843d 99e4 0dbd
00000230: fafd a9bd fe22 debc d5a8 08bd 78b6 853d
00000240: 7153 c2bd 6355 513d 7052 813d 6eb3 a3bd
00000250: c880 2cbd 1afe df3a 8731 893d 834c afbc
00000260: 6038 a8bc 8577 813d 6d70 27bd 3083 08bd
00000270: c738 bfbd 4950 d8bc 7a23 583d 6dbe 9a3d
00000280: 0c95 d83c 6331 97bc 86e9 a6bd 8490 e1bc
00000290: 0770 6e3d b0d6 40bd b3b8 a4bc 54a1 4e3d
000002a0: d7c1 15bd 4377 fbbc dd5e b23c a6d7 1dba
000002b0: be66 aebd 65e1 0cbd 80ae d9bc 6700 85bd
000002c0: 6068 dfba df91 613c e421 4e3d f17a 08bd
000002d0: eb76 e1bc ee29 263d edb3 8b3d 907e 3e3d
000002e0: 9ded 8a3d 098b 2d3c 06b9 81bd 5c09 cbbc
000002f0: de2b 613c 240b 84bd f08c fc3c ca1c 04bd
00000300: d071 273d 4deb 2fbd ef3d f93c d3e6 013d
00000310: f897 a73c 79d3 783d 4963 8d3d 4add 023d
00000320: e3b1 90bc 9c9c e63c f119 36bc 50bb 41bd
00000330: b4dc 843d 86a1 51bd 610e 9c3d 0f7a 98bd
00000340: 14a5 ac3d 6f0d 0bbd bd4b b93d 9237 043d
00000350: be40 75bd 7ca6 bb3a 8337 083d 551b 473d
00000360: ca8d 773a ecfa 6f3b ef3f e63c 591c 53bd
00000370: 7ab7 f93c f1d8 95bb d561 243d 6756 863d
00000380: 56b4 49bc d5cf acbd 0534 583d df2f 013c
00000390: e5be 8b3d 7e45 36bc 5072 cb3c 6039 2c3d
000003a0: cfae aa3c 4549 373c 0847 e8bc 2965 a9bd
000003b0: a125 46bd ef44 7a3d 3d8e 623d 0f4c 5abd
000003c0: 089f 313d d40e 643c e822 633c e07c 75bd
000003d0: e501 533b 6b97 713d 83c1 c73c d50d 74bc
000003e0: 12fb cc3c 9172 feba ecb3 e739 c8b2 783d
000003f0: 2976 95bc b173 803d e455 c83c 7012 0dbd
-0.022822317 -0.06794917 -0.072491735 -0.071455754 0.043865282 0.003371434 -0.03270254 0.09303099
-0.00023446871 0.00966253 0.022854006 -0.04009795 0.0280034 0.065361485 0.016136702 -0.02770265
-0.06362387 0.026650397 0.048244476 0.0735932 -0.06068863 -0.08272842 -0.072880454 0.05037951
-0.0587988 0.06922317 0.018072532 0.021707002 0.04674512 -0.05769868 0.009832736 -0.060222466
0.088839106 0.014834258 -0.07181134 -0.04398544 -0.014439749 0.045219246 -0.035831947 0.060600057
-0.014076363 0.06656378 -0.04184578 0.06995455 -0.03528971 -0.07673511 0.05193395 -0.042982675
-0.016001033 0.037700254 -0.07146415 -0.044095736 -0.087827176 -0.033061225 -0.06902796 -0.0011483714
0.019882364 0.012170021 -0.03302124 -0.060573936 -0.068193994 -0.0661718 -0.011858367 0.027056344
0.050926495 -0.047109593 0.08330864 0.00038135157 -0.012307278 -0.07315373 -0.0239174 -0.06470435
-0.041323643 0.073903166 -0.07493398 -0.0052854153 0.07523783 0.06360614 -0.08738662 0.08409725
0.06814894 0.04484959 0.057655104 0.01671803 -0.057012472 0.07581545 0.037029337 -0.03124171
-0.018966127 0.042814996 0.023857165 0.08551267 -0.064866304 -0.03999105 0.069911554 -0.03333937
-0.028528262 0.061808553 -0.007974393 -0.045402996 -0.04131559 0.053932108 0.042623412 -0.07692509
-0.057108607 0.030787658 -0.07549798 -0.06744648 0.009057337 -0.037154283 -0.092266455 0.058198646
0.055699173 -0.06188773 0.05649526 -0.06534598 -0.062029906 0.014727913 0.02665727 -0.058622893
0.06620227 0.050420016 -0.093297794 0.0015044521 0.05594129 0.006692936 0.073656 0.023269016
-0.046989936 -0.033842646 0.0150059955 0.0030250254 0.023871664 -0.022670649 0.021958664 0.014864289
-0.034101214 -0.06249866 0.06461812 -0.034641836 -0.08300395 -0.027116295 -0.033364136 0.06528944
-0.094885714 0.05110682 0.06314552 -0.07993208 -0.042115003 0.0017089278 0.066989 -0.021398788
-0.020534694 0.06321625 -0.040878702 -0.033328235 -0.09337001 -0.02640547 0.052768208 0.07555852
0.026438259 -0.018456167 -0.0815001 -0.02753473 0.058212306 -0.047079742 -0.020107603 0.050446823
-0.036561813 -0.030696517 0.02177375 -0.0006021209 -0.0851569 -0.03439464 -0.026572466 -0.06494217
-0.0017044656 0.013767689 0.05032529 -0.03332037 -0.027522525 0.04056733 0.068214275 0.04650742
0.067836024 0.010592231 -0.063341185 -0.024784736 0.013743369 -0.064474374 0.030828923 -0.032254018
0.040880024 -0.04294901 0.03042504 0.03171427 0.020458207 0.06074855 0.06903703 0.03194932
-0.017662948 0.028150849 -0.011114583 -0.047297776 0.06487408 -0.05117943 0.0761993 -0.07445156
0.08429924 -0.03394836 0.09047649 0.03227956 -0.059876196 0.0014316584 0.033256065 0.04861005
0.00094434305 0.0036618067 0.028106658 -0.051540706 0.030482996 -0.0045729806 0.040132362 0.06559449
-0.012311062 -0.08438078 0.052783985 0.0078849485 0.068235196 -0.011124967 0.024834782 0.042046905
0.020835308 0.011186902 -0.028354183 -0.08271248 -0.04837573 0.061100896 0.05531143 -0.05329519
0.043364555 0.013919551 0.013863303 -0.059933543 0.0032197174 0.058982294 0.024384266 -0.014895876
0.025022063 -0.0019412806 0.00044193806 0.060717374 -0.01824482 0.062720664 0.024455018 -0.03444141

fc21.bias f4 [20]
00000000: c858 12bc 625e 71bd da22 523d c615 92bd
00000010: dba1 c53b 50ce ccbc ddb2 263d 7255 bdbc
00000020: 5b9b 8ebd 7d52 8d3d 69dd c1bd 958a c03c
00000030: 995a 7ebd 9e1f 333c 3b99 763d d2b1 89bd
00000040: c635 80bb a768 2fbd cdde 193d e61c d4ba
-0.0089323 -0.0589279 0.05130277 -0.07133059 0.0060312576 -0.025000721 0.04069792 -0.023112033
-0.069632255 0.06900499 -0.09466059 0.023503581 -0.06209812 0.010932831 0.060204726 -0.0672337
-0.0039126603 -0.042824414 0.037565995 -0.0016182929

fc22.weight f4 [20, 128]
00000000: 7630 f7b9 78da 99bd 865b 94bc 86b1 99bc
00000010: 5e6a b0bd 503c a7bc 5706 11bd 07a8 04bd
00000020: 0e96 3bbc 5c19 413c c5d2 2d3c 59f0 af3d
00000030: ff1c 71bd 1bf5 99bd fa39 043d 115a 93bd
00000040: 0647 093c b88b 223d a58e fc3c 6750 abbd
00000050: 2c3d ebbb fcf3 e33c 4241 c23c c361 633c
00000060: 52c6 eb3c ed9d a33a d460 683d 7207 8bbd
00000070: fb5e a5bd ef81 dfbb ead5 963d bf36 0bbc
00000080: fdf6 fbbc dd4b 8cbc bdb1 fcbb 8a16 8abd
00000090: b415 593d c7a9 cabc 877f e1bb dbab 2fbd
000000a0: b42a d43c 7125 68bd 703d 4b3d aa15 9d3d
000000b0: d593 a3bd 15c5 88ba e496 1b3d 2bcf b03c
000000c0: 0c2b 6f3d a2a6 28bd 7232 52bd 0074 3d3d
000000d0: 46d2 6d3d 07dc 953c d700 5b3c a4d9 2abd
000000e0: 8a11 663d 0fd5 833c 4c47 16bd 64a4 a7bd
000000f0: 5e14 723b bec6 48bd 151d 5c3d 2fed a03b
00000100: d29b bfbc 8002 64bd 6f23 01ba 8755 84bc
00000110: 377a adbd c1fc 873d 202b c33c 6688 8c3d
00000120: dec4 83bd 8e2d 82bc 38d5 ce3c a3d8 223d
00000130: 404d 9cbc 6c81 a9bd c5ec 923d adf4 7d3d
00000140: d162 843d aa65 003d 3e76 253d fe72 3abc
00000150: b17a 71bd 9af1 863c 99b8 a4bc 56db 953d
00000160: 900f 2cbd cbf4 55bd 93f2 bbbd f72a d13b
00000170: bed5 993d d1c7 97bb 700d 98bc a979 da3c
00000180: e9be aebd 4624 1e3d 64da 8e3b 54e9 7ebd
00000190: 575a edbc 24a2 5e3d db25 7dbd f02e 233d
000001a0: 05da cfba ee9e a53c c9bc 4fbd c6d7 223d
000001b0: a670 93bd b457 5cbd d6a1 19bd af16 0a3d
000001c0: 3390 3ebd 98a4 523d 6711 9c3d 6875 393b
000001d0: e281 7f3d d7c9 43bd 2cb4 b1bc de98 003c
000001e0: 209c c03c 0785 f2bc cf19 9d3d 8ad0 a13d
000001f0: f2a5 7fbb e803 1f3d 219e b3bc 24c6 003c
00000200: 57c4 04bd 4823 2d3d fbac 7cbd 2e06 5c3d
00000210: 7d4c a93d 8412 4abd b7d2 a93d 496d 543d
00000220: ad76 5abd 6642 ca3c 3d35 8cbd 9401 c8bc
00000230: b1fb 0a3d b2ea c03d 3d60 64bd 8d0b 8ebd
00000240: dcfb a6bc e731 ab3c 3625 87bd fa70 403c
00000250: f841 87bc 4c93 5ebd 11e3 9dbc 074b 64bb
00000260: 062d 90bd 53e2 8abd 951b 1c3d e199 12bd
00000270: e4af af3d 7724 85bd 814f 2f3c 0183 8dbc
00000280: 4f57 bd3d 876c 75bd 5a0d 173d 0552 46bd
00000290: 03d4 42bd 2055 503d b34b 0dbd 72d4 ccbc
000002a0: f06f 0c3d 6ec0 093b 3de7 86bc 103e adbc
000002b0: dd6a 8dbc 508d 2fbd da78 973b ec3c a3bc
000002c0: b835 b0bc 57a5 81bb 85d6 613d a257 503c
000002d0: 2de0 1dbd 3796 443d fd12 f8ba f2b1 ca3c
000002e0: 5c05 88bd daaa 86bd b0bd f2bb e6b4 fabc
000002f0: 2e2f 963d 32ad 7d3d 3673 31bc 843d 54bd
00000300: 2161 3f3c d76a 8bbd 17d6 c038 1c5e 80bd
00000310: 98fa 993d a7fb 373d 2702 72bd bbb6 6abd
00000320: 9c91 c73d 0dde f43c 7dc5 c1bc e5ef 21bc
00000330: 09ac 3cbd 2434 1bbd 252c bdbc 5bfa c03d
00000340: bd59 613c 495b 773c 2e12 bf3d 380c 8fba
00000350: 222d a0bc 139b 0dbd 3e51 3abd 0917 353d
00000360: 51a2 953d e8dd 573d 0698 5d3d da8a 14bd
00000370: eb7c 02bd f128 a23d 275d 763d 983a db3b
00000380: c59a 88bc c0af f0bb 51f9 7a3d 06bc 203d
00000390: af35 41bd 75b3 823d 74f1 70bd a633 5a3d
000003a0: 601c 5b3a b2f6 20bd 9dbd d93c 037f fb3b
000003b0: 6818 b2bc 0082 a4bc 6953 54bd fb10 79bc
000003c0: 3c88 6abd 1144 b8bc ebf3 11bd 2cf3 f83c
000003d0: 8967 273d 5fed 963c 5cb1 05bd d759 9f3c
000003e0: 63c0 ff3c 947d af3c d23d 68bd 9981 833b
000003f0: 0f4b c83d 5db3 a93d 84f8 88bd 66bb 05bd
-0.00047147617 -0.07512373 -0.018110048 -0.018761408 -0.08614038 -0.020414501 -0.035406437 -0.032386806
-0.01144935 0.011785831 0.010609333 0.085907646 -0.058865543 -0.07517453 0.032281853 -0.07194913
0.00837875 0.039684027 0.030829737 -0.08364945 -0.007178923 0.027826302 0.023712758 0.013878289
0.02878109 0.0012482979 0.056732967 -0.067885295 -0.08074757 -0.006820909 0.073650196 -0.008496939
-0.030757422 -0.017126018 -0.0077116177 -0.0674258 0.052999213 -0.02473916 -0.0068816575 -0.042888504
0.025899269 -0.056676332 0.04961914 0.07670148 -0.07987181 -0.0010434712 0.037985697 0.02158316
0.058390662 -0.04117454 -0.05131764 0.046253204 0.05806186 0.018293394 0.013366899 -0.041711465
0.05616907 0.016092805 -0.036689088 -0.08185652 0.003693841 -0.04901766 0.053738672 0.004911087
-0.02338973 -0.055666447 -0.00049262395 -0.016154064 -0.08470576 0.06640006 0.023824275 0.068619534
-0.06434034 -0.015890863 0.025248155 0.039757382 -0.019079804 -0.082766384 0.071740665 0.06200092
0.0646416 0.031346954 0.040395968 -0.011379955 -0.0589549 0.016472626 -0.020107554 0.07317226
-0.04200703 -0.052235406 -0.09177127 0.0063832956 0.07511471 -0.0046319743 -0.018561095 0.02666934
-0.08532507 0.03860881 0.0043595303 -0.062234238 -0.028973741 0.054353848 -0.06180368 0.039839685
-0.0015857822 0.020217385 -0.05071715 0.03975656 -0.0719922 -0.053794578 -0.037507854 0.03371304
-0.046524238 0.0514265 0.07620507 0.002829874 0.062379725 -0.04779991 -0.021692358 0.007848946
0.023511946 -0.029604448 0.07670938 0.07901104 -0.0039008823 0.038822085 -0.021925988 0.00785974
-0.032413807 0.042269975 -0.061688405 0.05371683 0.08266542 -0.049334064 0.08292144 0.051862035
-0.053335834 0.024689864 -0.06846092 -0.024414815 0.033931438 0.094197646 -0.055755842 -0.06935797
-0.020383768 0.020897819 -0.06598894 0.011745686 -0.016510949 -0.054339692 -0.019273313 -0.003483476
-0.070398375 -0.06781449 0.03811224 -0.03579128 0.0857847 -0.06501096 0.010700108 -0.017274382
0.092451684 -0.059917953 0.036877967 -0.048418064 -0.04756547 0.05086243 -0.03449602 -0.025003646
0.03428644 0.0021019238 -0.016467685 -0.021147758 -0.01726287 -0.042859375 0.004622561 -0.01992651
-0.02150999 -0.0039564776 0.055136222 0.012716206 -0.03854387 0.04799482 -0.0018926557 0.024743054
-0.06641647 -0.06575556 -0.0074078664 -0.030603837 0.073332176 0.06193275 -0.010830691 -0.05181648
0.011680872 -0.068074875 9.195151e-05 -0.0626795 0.075185 0.04491773 -0.059084084 -0.05730317
0.0974457 0.029891038 -0.02365374 -0.0098838555 -0.046062503 -0.037891522 -0.023092339 0.094227515
0.013754305 0.015097448 0.093296394 -0.0010913676 -0.019552771 -0.03457172 -0.045487635 0.04421142
0.0730635 0.05270186 0.05410006 -0.03626523 -0.031857412 0.07917965 0.06014743 0.0066903345
-0.016675362 -0.00734517 0.061272923 0.039241813 -0.047170337 0.06381885 -0.058824018 0.053271912
0.0008358415 -0.039297767 0.026579672 0.007675053 -0.021740153 -0.02008152 -0.05183736 -0.015201802
-0.05725883 -0.022493394 -0.03563301 0.03038939 0.040870223 0.018423734 -0.032639846 0.019452019
0.031219667 0.021422185 -0.05669958 0.004013252 0.09779941 0.08286164 -0.066880256 -0.03264942

fc22.bias f4 [20]
00000000: 68e1 9b3d 0f13 983d b51c 8b3d 5504 52bd
00000010: c715 4cbd d5be 363c a412 f13b db79 57bc
00000020: 5f1b 993d 66fd 9d3c 0245 503d 8f50 e9bc
00000030: 5330 533d b361 54bd 22eb 7fbd e6d3 66bd
00000040: 953e efbc e2df ecbb c309 7bba 2874 443d
0.07611352 0.0742551 0.06792585 -0.051273663 -0.049825456 0.011153896 0.0073569585 -0.013151611
0.07475924 0.019285869 0.05084706 -0.028480796 0.051559757 -0.051850986 -0.0624801 -0.056354426
-0.029204646 -0.0072288373 -0.0009576345 0.047962338

fc3.weight f4 [128, 20]
00000000: 0300 d23d 6a03 c2bd 55a6 8f3d 9a33 a73d
00000010: eae8 4ebe 2899 e0bd 21e2 c53d c477 e63c
00000020: e012 1b3e a8f5 c2bd 46e7 63be 1e9b 33bd
00000030: 87a5 83bc 4af4 0b3d ffb3 48be b15a 24bd
00000040: 182f bb3b 0827 f83d e7d1 cc3d 464d 1fbe
00000050: a082 3fbd a458 01be 6383 ebbd f2f9 873d
00000060: bace fe3d 8bb9 903d 3ef8 4b3e c334 04be
00000070: af3d a63d 1ae3 e6bd 3260 903d 0604 c83d
00000080: 54ba e83d e837 ca3d 5541 d63d 5a0c 413e
00000090: 98c3 393d 9058 b7bd db2f 81bd 60ef 49be
000000a0: 646d 5ebe f2e1 5dbc 6f7f eb3d f943 c7bd
000000b0: b434 73bd 78a9 b83d 034a 2bbe 62d1 293e
000000c0: a24e 1f3e ce0f 9f3d c410 883c 6754 21be
000000d0: 2451 5a3d 16b4 66bd c9f2 5e3e 9402 303e
000000e0: 4f31 c9bd 246b 1abe ab39 11be 4205 073e
000000f0: ec4a 323e 9306 cfbd 88e3 f8bd 9a84 c7bd
00000100: 7087 4fbe 5362 21bd b4b0 ce3d 0bca 47be
00000110: a799 c1bd 31b3 62be 2969 33be 8d30 2ebe
00000120: f093 cabd 79a1 ba3d 326d 073d 5feb 8fbd
00000130: 6a6b 033e 0ac3 bd3c 6358 bbbd 3163 98bd
00000140: cd61 76be c80a 55be 234c 8a3d a4ba 423e
00000150: 67a8 4c3c 5ed5 003e e6ee b7bd 43d4 4cbd
00000160: ed35 d4bc c022 f33d d960 bcbd ab95 553e
00000170: 4e0a 3cbe 97f0 2d3e 5ad7 8a3d 1087 53bd
00000180: 0ea4 0cbe 05fd 92bc 6b5e 1bbe 6e64 a8bd
00000190: ac01 5fbe 55bb 0e3e e06a a73d 5215 763d
000001a0: e8c5 c53d da07 2bbe 9dc9 3b3e d399 0f3e
000001b0: fc43 133e bb6b dd39 b314 513e ba48 40be
000001c0: 7eb1 30be ee0a 23be 636b 5e3e 8147 62bc
000001d0: 6a5e 72bc 1799 f9bd 3fc1 923d 4f32 8abd
000001e0: 1472 12bb ad81 d2bd 0ce5 a13d b544 28be
000001f0: e09a 483e 6c53 a53d 573d 44be 2c4c 40be
00000200: 4916 3bbd d5a1 48be 109c 25be e628 403e
00000210: 0c84 ccbd 9959 ec3d 796d 88bd c354 613d
00000220: 81cd 5c3e 12bd 0abe 98cb d7bd aae0 aabd
00000230: 1f23 6cbe e310 dabc b67b e5bd e49d 5ebe
00000240: 057d 2fbd 5f40 d03d 2da4 933d af71 4ebe
00000250: e2b8 57bd 5540 5c3e 6897 4b3e e36f af3d
00000260: 1354 5e3e 31e7 70be 7712 093e 1599 eb3b
00000270: a610 ebbd 6682 1e3e 1ac5 6bbe 92dd 57be
00000280: e1ce 75bd ae54 1b3e 7dab f7bc fc95 73be
00000290: 3948 ebbd 919d b43d 2c35 1cbe c13a ccbd
000002a0: bcbc e53d 8892 f6bd 7405 3e3e 5bfc 57be
000002b0: 1c41 4fbe abf1 fa3d 37b2 febd 1872 983c
000002c0: f2bd e0bd 5c3d 463e ac8e 143e 52cc f53d
000002d0: a52b ccbd 5784 10bd 7a53 243e 530e 483d
000002e0: 0eaf 483e 93f7 163d e319 39be db9e fcba
000002f0: 70bd c2bd 1eb5 553d 44f0 9ebd f609 25be
00000300: 7e68 c8bd 55ea 68be 9b53 42be a960 40bb
00000310: e64a 113e ec36 5fbe 1a12 33be 07ca 37be
00000320: 4ab7 8c3d 59c0 72be 22a9 113d fcf5 66be
00000330: f894 5f3d 96fb a23c 93b1 9b3d 3cab e6bd
00000340: fcd7 47be 8c93 e43c 0012 2dbe 1c1c bb3d
00000350: c190 623d 804a 423c dea8 31be 320a b83c
00000360: 484f 273e 043f 453e 565e 143e bff3 30bd
00000370: 203b a73d 600e f23d 9cb4 cb3d 26a3 58be
00000380: 45f4 3a3e 848e 3f3d c541 c83d 2d1d 08bd
00000390: ace1 91bc 42a4 8ebc 7031 5cbe d994 92bd
000003a0: 7447 ad3d 4a0b 023e 9ccc cbbd beed 0fbd
000003b0: 45af 803d 22b8 c03d fcc6 573e 413c 96bd
000003c0: a9a2 0dbe b765 e0bd 5690 63be 18ce b93c
000003d0: 70f1 3b3e 26c9 b73d 5f67 033e 3a96 55be
000003e0: 6d5f d2bd dc80 3abe 7435 dabd 8f00 ca3d
000003f0: 6388 eabd e375 35be 41d2 6cbc ad65 903d
0.102539085 -0.094733074 0.07014147 0.08164139 -0.20206037 -0.10966712 0.09662271 0.02813328
0.15143919 -0.095195115 -0.22256193 -0.043849103 -0.01607014 0.03416852 -0.19599913 -0.040125553
0.005712401 0.121168196 0.10000973 -0.15556821 -0.046755433 -0.1263147 -0.114996694 0.0663947
0.12441774 0.070666395 0.19918916 -0.12910752 0.08117234 -0.11273785 0.07049598 0.097663924
0.11363664 0.098739445 0.1046168 0.18852368 0.04535255 -0.08952439 -0.06307956 -0.1972022
-0.21721417 -0.013542639 0.114989154 -0.09729762 -0.059376433 0.090166986 -0.16727452 0.1658378
0.1555734 0.077666864 0.016609557 -0.15754853 0.053300038 -0.056324087 0.21772303 0.17188483
-0.09823858 -0.15079933 -0.14182155 0.131856 0.17411393 -0.10108676 -0.12152773 -0.097420886
-0.20266509 -0.03940041 0.10092297 -0.19510667 -0.09453135 -0.22138669 -0.17520584 -0.17010708
-0.09891498 0.0911283 0.03306312 -0.07027315 0.12833944 0.023164291 -0.09147718 -0.07440794
-0.24060746 -0.20804894 0.06752803 0.1901651 0.012491322 0.12581393 -0.08981113 -0.050007116
-0.02590462 0.118718624 -0.0919816 0.20857875 -0.18363306 0.16986309 0.06779356 -0.051642478
-0.13734457 -0.017942915 -0.15172736 -0.082222804 -0.21777982 0.13938649 0.08174682 0.060078926
0.09656888 -0.16702214 0.18338628 0.14023523 0.14381403 0.0004223267 0.20418052 -0.18777743
-0.17255208 -0.15922138 0.21720652 -0.013810993 -0.014793018 -0.12187403 0.07165765 -0.06747877
-0.0022345828 -0.1027864 0.07905015 -0.1643246 0.1959033 0.08072552 -0.19164024 -0.18779057
-0.04567555 -0.19592984 -0.16172814 0.18765602 -0.099861234 0.11540527 -0.06661505 0.055012476
0.21562769 -0.13548687 -0.10536879 -0.083436325 -0.23060273 -0.02661938 -0.112052366 -0.21739918
-0.042843837 0.10168528 0.072090484 -0.20160554 -0.052666552 0.21508916 0.19881976 0.085662626
0.2171176 -0.23525693 0.1338595 0.0071898797 -0.11477785 0.1547943 -0.23024407 -0.21080616
-0.06001175 0.15169021 -0.03023314 -0.23787683 -0.11488385 0.08819116 -0.15254658 -0.09972144
0.11217639 -0.12039667 0.18556768 -0.2109236 -0.20239681 0.12253126 -0.124363355 0.018609092
-0.10973729 0.19359344 0.1450755 0.12001862 -0.09969262 -0.03528246 0.16047469 0.048841786
0.19598028 0.0368572 -0.18076281 -0.0019273417 -0.095087886 0.05217468 -0.07760671 -0.16117081
-0.09785555 -0.2274564 -0.18977205 -0.002935449 0.14188728 -0.21798295 -0.17487374 -0.17948161
0.06870897 -0.23706187 0.03556169 -0.22554773 0.054585427 0.019895356 0.07602229 -0.11263129
-0.19515985 0.027902387 -0.16901398 0.09136221 0.05531383 0.0118585825 -0.17349574 0.022465799
0.16338837 0.1926232 0.14489111 -0.043201204 0.08165574 0.11819148 0.09946558 -0.21155986
0.18257244 0.046766773 0.097781695 -0.03323095 -0.017807804 -0.017412309 -0.21503234 -0.07157297
0.08460894 0.12699619 -0.099511355 -0.035138838 0.0628343 0.094101205 0.21072 -0.07335711
-0.13831581 -0.109569006 -0.22223029 0.022681281 0.1835382 0.08973913 0.12832402 -0.20858088
-0.10272107 -0.18213218 -0.106547266 0.09863388 -0.11451795 -0.17720751 -0.014454425 0.07050643

fc3.bias f4 [128]
00000000: 2a92 e03d 1dbe 163b 9144 0d3e 03b2 9f3d
00000010: 906d 303e b450 2d3e 0b0e b93d 5bac 97bd
00000020: db89 c8bd ea25 203e 8cdb 3c3e 510f f1bd
00000030: e075 ed3d 75e2 b03d 5de9 e83d b7c5 253e
00000040: 764b f23d 638f cdbc 3759 bbbc b602 34be
00000050: 9949 0dbe 612b 9dbd d09f 46be 3dae c2bb
00000060: e745 25be f22a b6bc 0071 543e e41b cf3d
00000070: c5d7 393e 3e40 4e3e 2914 07be 5727 2c3e
00000080: 481d e8bd 1a10 c7bd d822 fcbc 2fd3 ae3d
00000090: 8801 7cbd e043 b03d 7dd8 a83d e420 2ebe
000000a0: eea8 dd3d 3560 ebbd efcf 1abe f820 0c3c
000000b0: 6bbb 373d 03e5 3ebe dab7 52be 9d23 c3bd
000000c0: e87d b9bd ca95 583b e9c7 c43d 0b35 2cbe
000000d0: 06cf 273e cfb1 c2bd 8311 dd3c 2560 fabd
000000e0: fc0d e23d e0e4 f63d 0b2a 2f3e df02 eb3d
000000f0: f75c 5ebc 8e76 a33d e56c 093e 46b3 453e
00000100: 168b bc3d 7d9d b83b 74bc 393e 54f1 aa3d
00000110: 477f 33be 18ad b23d 7590 383d 5914 913d
00000120: cdad 1fbe 072c 6d3d b905 0a3e 77da 61be
00000130: ec62 5abd ab78 733e 0e00 233d 5470 143d
00000140: 7ae9 593e a382 2ebe c10d 43be 92c9 bc3d
00000150: 63ff 73bd 59cc 29be d170 8abc c71c 033d
00000160: e20d 4cbe 6f9c 003e 0f46 383e d0a2 023e
00000170: cea7 ea3d a933 843c 6c66 593e 15ba 483e
00000180: ea85 10be 118e 5b3e b6eb 4fbd 223a de3d
00000190: a3f2 7dbd cb67 d1bd a821 0dbe e14a 93bd
000001a0: 8584 2dbe c47d eabc 9ef6 4fbe 3f83 943c
000001b0: c965 e2bd 268d 3e3e 97e2 2ebe f713 663d
000001c0: 777c 1bbe e7d1 40be ed55 0e3e 8422 3b3e
000001d0: f1e9 3e3e f531 99bd 5a8b 17bc 861b 17be
000001e0: e5ab cdba f082 843d 807c bbbc dd21 15be
000001f0: a295 5fbe 9761 813d aa75 e23d 473f 173e
0.109653786 0.00230015 0.13795687 0.07797625 0.17229295 0.16925317 0.090358816 -0.07405921
-0.09791919 0.15639463 0.18443125 -0.117704995 0.115947485 0.08636943 0.113726355 0.16188703
0.11830799 -0.025092786 -0.02286969 -0.17579159 -0.13797607 -0.076742895 -0.19396901 -0.005941181
-0.16139947 -0.022237275 0.20746231 0.101127416 0.18148716 0.20141694 -0.13191284 0.16811882
-0.1133371 -0.09719868 -0.030778334 0.08536374 -0.061524898 0.08606696 0.08244417 -0.17004734
0.108232364 -0.114929594 -0.15118383 0.008552782 0.04485647 -0.18642049 -0.20577946 -0.09528277
-0.09057218 0.0033048266 0.09608442 -0.1681711 0.16387567 -0.095065705 0.02698589 -0.12225369
0.110378236 0.12055373 0.17105882 0.11475157 -0.013571969 0.07981597 0.13420446 0.19306669
0.09206216 0.0056340084 0.18138295 0.08346811 -0.17529021 0.08724421 0.04505964 0.07083959
-0.15593643 0.057903316 0.13478746 -0.22055994 -0.053316996 0.237765 0.039794974 0.036239937
0.2128047 -0.17042021 -0.19048215 0.09218134 -0.059569728 -0.16581859 -0.016899498 0.032009866
-0.19927171 0.12559675 0.17995475 0.1275742 0.114577875 0.016137915 0.21230477 0.19602235
-0.14113584 0.21440913 -0.0507619 0.10850932 -0.061998975 -0.10224875 -0.1378237 -0.071920164
-0.16945083 -0.028624423 -0.2030892 0.01812899 -0.1105457 0.18608531 -0.17078625 0.056171384
-0.15184198 -0.18830071 0.13899966 0.18274885 0.18643929 -0.07480232 -0.009249533 -0.14756593
-0.0015691487 0.06470287 -0.022886515 -0.14563699 -0.21834424 0.06317442 0.11057599 0.14770232

fc4.weight f4 [8, 128]
00000000: 0cf3 53bd 2e6a 723d a6e5 9a3b 253a 003d
00000010: c46e 57bc 16f9 d6bd 7cc1 acbd 243b 2ebd
00000020: 885b 4cbd d6f4 3cbd 350d 223d b94c d0bd
00000030: 4a40 d2bd adb7 bbbc 1a83 b3bd eba2 0cbd
00000040: d664 a1bc 8338 0fbd 807f 8abd 6202 8ebd
00000050: a3e6 edbc 3ad2 bab9 a6e0 16bd 3749 89bd
00000060: 152f bebd ff69 4ebd c38e ed3c e50a 18bd
00000070: 9cdb c1bd eb30 893d 7982 60bd 86ef 9dbd
00000080: 9ee1 403b 2b9d 443d a688 a3bc 09fe bcbd
00000090: 1008 fbbc 0431 92bd df33 103d a666 64bd
000000a0: 9e07 27bd 1ea0 7dbc 8c8f 62bd 4496 443d
000000b0: dfd4 91bd faa3 91bc 2328 313d 9321 cabc
000000c0: 8235 98bd 5a77 28bd 632b 79bd 1e50 82bc
000000d0: 109f 853d ce86 79bd b9e1 833d c670 33bd
000000e0: 0693 3fbd ad04 dfbc 9477 a2bd 23f5 883d
000000f0: ab41 593a 4437 803d 82b4 aebd 3ac1 bfbd
00000100: 1cd9 e7bc 591d 423c 3b39 05bd b96f 2ebd
00000110: 5a70 99bd b9c4 9dbd f9d6 753d e3cb 52bd
00000120: 92e4 25bd f9d5 c43c d9d9 a0bd a3f2 183c
00000130: a22b ad3c 38ac fcbc 93cb b23b 4277 79bd
00000140: 7b42 8bbd 3107 a3bd 972d c2bc db6b 1ebd
00000150: 6705 a7bd 9fd2 1bbd 4c6c 8cbd 038b e83c
00000160: 723a 00bd 2fc5 b6bd 7573 77bd fbda acbd
00000170: 2f81 c33c f2c0 70bd cab1 433c 49ca 45bd
00000180: c030 d0bd 6416 01bc aedb b2bb 6472 1fbc
00000190: 72c9 843d 9e80 fd3c 5ca7 b4bd c310 113d
000001a0: 4a44 183d a4ad d5bc 0bd9 bd3b cce3 b5bd
000001b0: 1cb4 0a3d 4f4d 82bd a2bb 74bd 9919 58bd
000001c0: 1a08 d73c cde8 f4b9 2008 acbc fecb 933c
000001d0: 4af2 0f3d 8e51 863d fc20 6b3d f414 3ebd
000001e0: e342 3b3d 1c24 68bc 27a3 35bc 3242 6d3c
000001f0: 9c0d 36bd 8293 c6bd 1f32 203d 34ef 15bd
00000200: 3269 733d 30f8 453d 74f4 b2bd 0ecf 83bb
00000210: 8258 49bd dc0d 183d b864 54bd 3960 43bd
00000220: 4680 2f3d 6ff2 1d3d 45b7 86bc 5b2f a63c
00000230: 6b43 713d 1e3a 293d c398 54bd 22e8 633d
00000240: c2b1 093c 2ed9 4b3d c532 27bd de82 a33c
00000250: c3e4 7a3d fb09 e23c 2ea6 99bd 5086 5ebd
00000260: caf9 61bc 2953 39bd a5a2 39bb 3ed9 bcbd
00000270: adce 09bd a5bf a1bc bd98 a8bc 88ee 9ebd
00000280: 1a34 2b3d fe69 7e3c e643 50bd b612 79bd
00000290: 76a5 ba3b 78f4 183c e69a 1abd fd71 ae3c
000002a0: e103 403d 6eee 4abd f6a8 783c 5d22 063d
000002b0: e4b9 3b3d a3c7 65bb ac78 14bd 60bd eabc
000002c0: ec04 793d b1be 7dbd cd7a d0bc 5a44 cbbd
000002d0: cfff 233b 25d9 abbd 41a3 0dbd 727a a83c
000002e0: e864 3e3d 04a5 753d 51ca 823d bc9f a7bd
000002f0: a798 083d 9d86 163d 1ad6 903c 1a48 a43c
00000300: ded8 8d3c 7950 6dbd 91d8 133d 757a b0bd
00000310: 8f1e 46bd fbfb 77bd ab4c b3bc 7ddf a73c
00000320: e19b 893c 084c 613d 301c 03bd 8166 de3c
00000330: 840e ee3b 334e d9bd a58b e13c 6743 e7bb
00000340: 5af9 b9bd c4c0 aebc 1950 3b3d de6c 863d
00000350: 0aaa aa3a 69dc bbbd 95c1 c5bd 3068 93bd
00000360: c7a6 32bd 3d70 3fbd a5cf 3d3d 7b8b 63bd
00000370: 1a61 9fbd 53b6 cfbd f60d d9bd 9bdc c13a
00000380: 5eb6 0b3d df4d d7bc 9943 6bbd 36ad 61bd
00000390: aba9 863d 3f6e 953c b934 95bd 7800 1abd
000003a0: 0468 10bd 8223 79bd eb84 343d 7213 6c3d
000003b0: 0e8a 2fbd 6f27 2f3c 75ac db3b b191 17bd
000003c0: eec8 55bb a04a c63c f06b d1bd b476 bbbd
000003d0: 86c4 f43c 321f 6ebc 1007 ba3c b6a3 d33c
000003e0: fc29 b2bd 7e41 a0bd ece1 c6bd 728e 56bd
000003f0: 239e e13b aa9b c2bd d4cd 5c3d feb4 ebbc
-0.05174546 0.059183292 0.0047270833 0.03130545 -0.013148967 -0.10496728 -0.08435342 -0.04253687
-0.04989198 -0.04613193 0.039563376 -0.10170884 -0.102661684 -0.022914732 -0.0876524 -0.03433506
-0.019701403 -0.034966003 -0.067626 -0.06934048 -0.02904064 -0.00035633316 -0.036835335 -0.06703418
-0.09286324 -0.050394055 0.028998738 -0.037119765 -0.09465715 0.066987835 -0.05481193 -0.07711701
0.0029431353 0.04800145 -0.01996262 -0.09228141 -0.030643493 -0.07138255 0.035205718 -0.055761956
-0.04077875 -0.015480069 -0.05531268 0.047994867 -0.0712068 -0.017778385 0.043251168 -0.024674213
-0.07432081 -0.041129448 -0.060832392 -0.015907343 0.065244794 -0.060919575 0.064395376 -0.04380872
-0.04677107 -0.02722391 -0.07932964 0.06687381 0.00082876784 0.06260541 -0.08530523 -0.09363027
-0.028301768 0.011847817 -0.032525282 -0.042587016 -0.074921325 -0.077035375 0.060019467 -0.051463973
-0.040501185 0.024027811 -0.07854051 0.009335193 0.02113897 -0.030843839 0.005456397 -0.06090475
-0.067997895 -0.07960356 -0.02370338 -0.038677078 -0.08155327 -0.03804266 -0.068565935 0.028386598
-0.031305738 -0.089243285 -0.060412843 -0.08440205 0.02386531 -0.058777757 0.011944244 -0.048288617
-0.10165548 -0.0078788735 -0.0054583168 -0.009731863 0.06483735 0.030945119 -0.08820984 0.035416376
0.0371745 -0.026083775 0.005793696 -0.088813394 0.033863172 -0.06362402 -0.059749253 -0.052758787
0.02624898 -0.00046712757 -0.020999968 0.018041607 0.035143174 0.06558524 0.057404503 -0.0464067
0.045718085 -0.014168765 -0.011086262 0.014481114 -0.044446573 -0.09696104 0.0391103 -0.036605075
0.059426494 0.048332393 -0.08738032 -0.0040224856 -0.049156673 0.037122592 -0.051853865 -0.047699187
0.04284694 0.03856128 -0.016444812 0.020286253 0.058902185 0.04131519 -0.051903497 0.0556413
0.008404197 0.049767666 -0.040819902 0.019959863 0.06125332 0.02759265 -0.075023994 -0.05432731
-0.0137924645 -0.045245323 -0.0028325703 -0.09221123 -0.033644367 -0.019744704 -0.020580644 -0.0776034
0.041797735 0.0155282 -0.050846003 -0.06080886 0.005695994 0.00933563 -0.03774538 0.021294588
0.0468787 -0.04954379 0.015177002 0.032747615 0.045831576 -0.003506162 -0.036247894 -0.028654754
0.06079571 -0.061949436 -0.025449181 -0.099251464 0.00250243 -0.083910264 -0.03457952 0.020566199
0.04648295 0.059971824 0.06386245 -0.08184764 0.033348706 0.03674947 0.017680217 0.020053912
0.017315324 -0.057938073 0.036095206 -0.08617107 -0.048368987 -0.06054304 -0.021887144 0.02049231
0.016797962 0.05500415 -0.032009304 0.027148487 0.007264914 -0.106106184 0.027532408 -0.0070575955
-0.09080763 -0.021332152 0.045730684 0.065637335 0.0013020646 -0.09172899 -0.096560635 -0.071976066
-0.043616083 -0.0467379 0.046340603 -0.05555294 -0.077821925 -0.101421975 -0.10598366 0.0014790477
0.034109466 -0.026282249 -0.057437513 -0.055096827 0.0657533 0.018241046 -0.07285447 -0.037598103
-0.035255447 -0.06082488 0.044072073 0.057635732 -0.04285627 0.010690554 0.006703908 -0.037004177
-0.0032620984 0.024205506 -0.102256656 -0.091535 0.029878866 -0.014533805 0.022708446 0.0258349
-0.08699414 -0.07824992 -0.0971106 -0.05238194 0.0068853064 -0.09502347 0.05390723 -0.028772827

fc4.bias f4 [8]
00000000: cb50 a0bd 0d11 3abd bb76 69bd 24cc 36bd
00000010: 9178 6cbc a2d6 3c3d 7f18 7f3d 697d 95bd
-0.0782791 -0.045426417 -0.056997996 -0.044628277 -0.014433042 0.046103127 0.06227922 -0.07299311
