_Models/vae_encoder.pth (torch, 43824 bytes, 10 tensors)

fc1.weight f4 [128, 8]
000000 91 ba 3d be 1e a2 6f be c2 18 08 3e c6 18 db 3d
       -0.185282 -0.23401687 0.13290694 0.106980845
000010 e3 e7 dc bb 47 28 83 bd b5 0c a3 3d 69 be 65 be
       -0.0067415102 -0.06404167 0.07961408 -0.22435917
000020 14 0e 3b 3e 76 a8 cd bd c3 39 9c 3c c5 7e 28 3c
       0.18267089 -0.10041897 0.019070512 0.01028413
000030 a8 07 51 3e 60 09 2a 3e fe af 9d be c3 1d 5e be
       0.20413077 0.16605139 -0.30798334 -0.2169104
000040 39 e7 ad 3d 9e 11 a2 3e 51 9e a9 be fa 8a a8 3e
       0.08491368 0.31654066 -0.33128598 0.3291853
000050 5f a3 86 be a6 f9 ae bd ba 11 8c 3e 33 72 7f 3e
       -0.26296517 -0.085437104 0.27357274 0.24945907
000060 95 7b 00 3e 20 c7 24 3e 14 aa 02 3e b0 6e 16 3e
       0.12547143 0.16091585 0.12760192 0.14690661
000070 f7 ae ab be 3c fe a8 3d 25 d0 3c be e9 f7 4d bd
       -0.33531925 0.08251616 -0.18438776 -0.050285254
000080 e9 49 19 bd 4c c2 b5 bd 7e ae a9 bd 78 3d 00 bd
       -0.037424 -0.0887495 -0.08285235 -0.03130862
000090 25 a1 35 3e 48 3c 46 be 5b a9 25 be 03 74 1c be
       0.17737253 -0.19358933 -0.16177885 -0.1527863
0000a0 2d 53 99 3d ce ce 89 be 7e 27 4c be ad 2c 9f 3e
       0.07486568 -0.26915592 -0.1993694 0.31088772
0000b0 04 d5 8d be 0f e6 bd 3d 02 a7 8f 3e 9c 71 28 3e
       -0.2770158 0.09272396 0.28057104 0.16449589
0000c0 47 c2 b0 bd 20 9d 35 be c5 15 f5 bd c3 b5 47 be
       -0.086308055 -0.1773572 -0.11967043 -0.1950293
0000d0 3d fa 60 be a7 8c c1 bd 95 50 38 3e 1d 50 7c be
       -0.21970458 -0.094506554 0.1799949 -0.24639936
0000e0 7f db 8d be c7 40 a7 be d0 9d 3d 3b 90 bd 79 3e
       -0.27706525 -0.3266661 0.0028933175 0.24388719
0000f0 2a 53 8c 3e 96 03 a4 bc 01 64 db bd 48 96 98 3d
       0.274072 -0.020021241 -0.107124336 0.07450539
000100 ec 16 fe bb 4c 23 85 bc 17 72 90 3e 2c e3 69 bd
       -0.0077541973 -0.016252182 0.28212044 -0.057101414
000110 7a 38 fc bd 87 a6 81 be 7f 2a 97 3e 47 86 99 3e
       -0.123154595 -0.25322363 0.2952461 0.29985258
000120 d8 9f 9f 3e 30 50 a4 3d d7 ce 85 be 81 ae fe bd
       0.3117664 0.08023107 -0.2613437 -0.12435628
000130 d6 c5 aa 3e 8b f2 ac be c4 2c 82 3e bd 3c a4 3d
       0.33354062 -0.33778796 0.25424778 0.080193974
000140 34 03 bf bd 3b c2 6e be f1 f9 2d be a9 2e c2 3c
       -0.09326783 -0.2331628 -0.16989876 0.02370389
000150 9e 01 76 bd 93 fe 5f bd 05 6c 6d bd 48 10 78 be
       -0.060060136 -0.05468614 -0.057964344 -0.24224961
000160 56 af aa 3d f1 ae 5c be 75 c6 9b 3d cd 5f 19 3e
       0.08334224 -0.2155111 0.07606212 0.14977951
000170 d3 83 1d 3e 8c 54 4e 3e c3 97 23 be 6f 1e c5 bd
       0.15382318 0.2014944 -0.15975861 -0.09624945
000180 27 0b 3c be 73 53 fe 3d 6d c3 49 3c 15 7b 23 bd
       -0.1836363 0.124182604 0.01231466 -0.039912302
000190 26 0a ab 3e 57 63 2f 3e aa 9e 48 3e a2 28 62 3d
       0.3340618 0.17127739 0.19591776 0.05521453
0001a0 56 bc 51 3e ce 56 94 bd 66 95 9a 3e f4 e2 2f 3e
       0.20482 -0.07243119 0.30192107 0.1717642
0001b0 fb cd 66 be db 4c 8a 3d 75 44 ae bd f8 69 d1 bd
       -0.22539513 0.0675294 -0.08509151 -0.1022529
0001c0 f3 dd 31 3e 92 6d 2d be c2 97 46 be d0 47 c2 bd
       0.17369823 -0.16936329 -0.19393829 -0.094863534
0001d0 c7 55 07 3d ab 23 0e be e8 57 ba 3d 4d d7 9d 3e
       0.033040788 -0.13880794 0.09098798 0.30828324
0001e0 f0 1d ec 3d 7d e0 a4 be 88 50 86 be ee 02 17 be
       0.115291476 -0.3220252 -0.26233315 -0.14747211
0001f0 26 e7 af 3c 01 e2 aa be ef 97 77 be 59 ea b3 bd
       0.021472525 -0.33375552 -0.24179052 -0.08784933
000200 29 3d 30 3d 24 c5 2e 3e 9a 6b 4a 3e 14 8f 10 bc
       0.043027077 0.1706739 0.19767609 -0.008823175
000210 69 8e 89 3e 9b 99 89 be 75 19 8c 3e 3c be 24 3c
       0.26866463 -0.26875004 0.27363172 0.010055121
000220 d6 54 a7 be 83 99 95 3e ed 83 8a be 77 dc 64 3d
       -0.32681912 0.29218683 -0.27053776 0.055874314
000230 64 8b 88 be ab 6b 36 3e 03 77 9b 3e 21 3c 30 be
       -0.26668847 0.1781451 0.30364236 -0.17210437
000240 da f4 30 3c 16 5b 3f 3d 56 e0 b6 bd c3 44 cd bd
       0.010800565 0.046717726 -0.089295074 -0.10022881
000250 c2 97 8c be a4 98 84 be a1 38 9c 3e 73 c9 d2 bd
       -0.27459532 -0.25897706 0.30511954 -0.1029233
000260 7e bd e3 3c f7 76 2c 3e 63 eb 17 3d 2d 4c 23 3a
       0.027800318 0.16842256 0.037089717 0.00062293076
000270 cb f4 dc bd 54 d8 a1 bd 6a 12 1a be c0 9c 7f bc
       -0.10788878 -0.079025894 -0.15046087 -0.015601337
000280 20 78 49 3d 0e 7b 1d 3d f2 a9 71 3e f0 ba 01 3e
       0.049186826 0.038447432 0.23599985 0.12668967
000290 f6 28 2b be 15 8c 98 be 8c ef 57 be 3e 22 91 3e
       -0.16714844 -0.29794374 -0.21087474 0.28346437
0002a0 94 a5 2e be ad 49 ed 3d d2 a9 a9 be ed 08 42 be
       -0.1705535 0.11586318 -0.33137375 -0.18948717
0002b0 82 e9 a0 be e1 2c 99 be 84 b4 e6 3d 9e 0e 84 3e
       -0.31428152 -0.29917052 0.112648994 0.25792402
0002c0 3f 48 46 3e 32 2a 8e be 63 4f 95 bd 94 0a bc bc
       0.19363497 -0.27766567 -0.072905324 -0.022954263
0002d0 a3 73 86 be bf 21 85 3e 5f 64 69 3d b5 7b d2 bd
       -0.262601 0.2600231 0.056980487 -0.102775015
0002e0 a9 60 c2 bd 07 ea 46 3d c9 d8 54 3e 51 34 aa 3d
       -0.09491093 0.04856303 0.20785822 0.0831076
0002f0 d3 4c 21 bd 1e eb 2f be a9 b5 94 3e eb bb 10 3e
       -0.039379906 -0.17179534 0.29044846 0.14134185
000300 55 82 3d 3e 67 59 23 be b5 2a 0e 3d 63 82 60 be
       0.18506749 -0.15952073 0.034708697 -0.21924739
000310 79 1b 7d 3e 9b 8e 9c be 3e e9 2e bd 92 f2 bc bd
       0.24717511 -0.3057755 -0.042702906 -0.09225954
000320 81 d1 90 be 58 e2 83 3d fa 09 89 3d 86 02 5b 3e
       -0.2828484 0.06439656 0.06691356 0.21387681
000330 b6 c9 0b 3c ae 17 76 3d 9c 07 5a bd 1f 1a 8f 3e
       0.008531978 0.060081176 -0.053229913 0.27949616
000340 11 76 96 be d3 83 90 be 7e a5 6f 3e 77 d0 48 3e
       -0.29386953 -0.28225574 0.23402974 0.19610773
000350 d4 f1 9d 3e 58 43 82 3d b3 e9 6c bd 7e 44 8f bb
       0.30848563 0.06360501 -0.05784006 -0.0043721786
000360 9d 84 36 3e 4a dd 1b 3e f7 1f 5f be e1 3c 02 bd
       0.17824025 0.15221134 -0.21789537 -0.03179634
000370 58 18 d3 3d 2f 7c 83 3d 36 1c 84 bb bc 1c e7 bd
       0.103073776 0.064201705 -0.0040316833 -0.112847775
000380 cb 27 71 3d 6a a5 8a 3e ef 3a 00 be 4a 39 9a 3e
       0.05887584 0.27079326 -0.12522481 0.30121833
000390 4d 60 83 bd 97 79 af bd 9a e6 a8 bd 9f f6 77 3d
       -0.06414852 -0.08568113 -0.08247109 0.06053793
0003a0 02 40 c6 bd 70 3a 2a be 8e e1 f2 bd b8 10 6e be
       -0.09680177 -0.16623855 -0.118594274 -0.23248565
0003b0 c5 da 12 be 5f 39 72 3e 71 9b de bd f9 3e aa 3e
       -0.14341266 0.23654698 -0.10869492 0.3325117
0003c0 8a 8c c3 3d ad ae 3b 3e ee 01 27 be 67 04 f2 3d
       0.0954829 0.18328352 -0.1630933 0.11817246
0003d0 5b 30 5b be 82 f9 93 be 55 ac 82 3e 51 97 a9 3e
       -0.21405165 -0.28901297 0.25522104 0.33123258
0003e0 ef 90 fd 3d e1 2a ab bd d7 4e 93 bd 11 13 45 bd
       0.123811595 -0.08357788 -0.07192772 -0.048113886
0003f0 70 9e ad be 81 e9 87 3e 36 54 85 be c3 94 a0 be
       -0.3390994 0.26545337 -0.2604081 -0.31363496

fc1.bias f4 [128]
000000 31 81 ba 3c 3c 60 f6 bc 3d ef 98 3e 7e 7f 9a 3d
       0.022766681 -0.030075185 0.29870024 0.075438485
000010 7a 10 69 3e 29 4b 62 3e ac 53 69 be 37 6b a2 be
       0.22760192 0.22098984 -0.22785825 -0.31722423
000020 03 69 ca 3d 56 cc 5d 3c c0 56 77 be d9 7b 8f be
       0.09883311 0.013537487 -0.24154186 -0.28024176
000030 cc 15 35 3e bf 0b 61 3e 70 20 8d 3e 50 bc 4d 3e
       0.17684096 0.21977137 0.2756381 0.20091367
000040 3c fc 0a bd ec b8 95 be ba 90 6d 3e 4f a4 6c 3e
       -0.033931956 -0.29242647 0.2319974 0.23109554
000050 70 06 59 3e 1f b6 2a bd d8 60 08 3d b9 e2 17 3e
       0.21193862 -0.04167759 0.033295482 0.14832582
000060 95 33 33 3d a1 76 d6 bd e4 90 95 3e c0 6d a8 bd
       0.043750364 -0.104718454 0.29212105 -0.08224058
000070 b0 e1 af be 86 37 e2 bc 70 00 8b be 69 57 15 bc
       -0.34351873 -0.027614366 -0.2714877 -0.0091150785
000080 b1 62 63 3d 32 75 f0 3c e0 87 39 3d 0b da ab be
       0.05551404 0.029352758 0.045295596 -0.3356479
000090 13 5b 8d bd 4d 69 dd bc 5a bb 4b 3e 9b d3 8a 3e
       -0.06902137 -0.02702775 0.19895688 0.27114567
0000a0 79 7f 91 3d 5b 8e 4a be 85 4b 2b 3e 77 67 99 3e
       0.071043916 -0.19780867 0.16728027 0.2996175
0000b0 be 98 8e be f2 90 d9 bd ce 2c b9 bb 76 26 ee 3d
       -0.27850908 -0.10623349 -0.005651093 0.116284296
0000c0 b8 57 27 be ae b7 6d 3e a9 5f 26 3d 98 d5 b9 bd
       -0.16342056 0.232146 0.040618572 -0.09073943
0000d0 94 cd 51 3c 21 5e 3e be 94 98 81 be 3d b5 01 3e
       0.012805361 -0.18590595 -0.2531172 0.12666793
0000e0 8a 5d 77 be 6f 06 9f 3e 23 28 92 3e 51 1b 2a 3d
       -0.24156776 0.31059596 0.28546247 0.041529957
0000f0 c7 9c 94 3e df 96 3e 3e 17 e9 39 3e 8a e8 a8 3e
       0.29025862 0.1861224 0.18155323 0.32989913
000100 52 00 a0 3e 28 3f 69 3e 6d 1f 8a 3e 50 5d 66 be
       0.31250244 0.22777998 0.269771 -0.22496533
000110 ef 36 67 3e 51 e4 64 3e dd a9 79 3e a3 fb 06 3e
       0.22579549 0.22352721 0.24381204 0.1318193
000120 f4 a6 e4 bd ef d8 07 be b5 ec 65 be 92 6a cf 3a
       -0.11164656 -0.13266347 -0.22453578 0.0015824607
000130 27 46 7a be 13 01 3a bd da 35 78 be a2 2d 4b 3d
       -0.24440823 -0.04541118 -0.24239293 0.049604066
000140 a5 6a 80 3e 68 b3 57 3d 24 e2 04 be 50 a8 7f 3e
       0.25081363 0.05266133 -0.12976891 0.2496655
000150 3a a2 44 3e a5 6e 5f be ce 3e 97 3e 51 f8 ae be
       0.1920251 -0.21819551 0.29540104 -0.34173825
000160 43 64 c8 bd 1a 28 f7 bd ba 35 77 be 35 55 ad be
       -0.097847484 -0.12068196 -0.24141589 -0.3385407
000170 df 9f c8 3d 52 4d 1a 3e 63 7f f8 3d 58 ad aa be
       0.09796118 0.15068558 0.12133672 -0.33335376
000180 97 c1 59 be 94 11 8f bd 6e 36 6d 3e f3 07 ae 3c
       -0.21265255 -0.06985775 0.23165295 0.021244025
000190 6e 90 b3 be a7 56 15 3e f0 c6 d7 bd 26 36 0e bd
       -0.3507113 0.14583836 -0.10535991 -0.03471961
0001a0 7f 88 4b be 10 3d 2e bc d7 37 83 be d5 2f 87 3e
       -0.19876288 -0.010634676 -0.2562854 0.2640368
0001b0 63 1e 4e 3d 8e 75 09 3e 29 16 4f be 36 e7 50 3e
       0.050321948 0.1342375 -0.20223297 0.204007
0001c0 b1 1a a5 be eb a2 a3 3e d1 c4 a3 be c6 4f 81 be
       -0.32246926 0.31960234 -0.31986097 -0.25256175
0001d0 62 6b 1e 3d 14 27 73 3d ce f8 37 3e fb 7d 62 be
       0.038676627 0.05936344 0.17966005 -0.2211837
0001e0 d3 76 28 3d 31 2a 84 3e 1e 57 aa 3e ab 7b 9c be
       0.041128945 0.2581344 0.3326959 -0.305631
0001f0 14 84 2c 3d a8 fb 8c bd 69 b5 90 3d d8 df 69 3e
       0.042118147 -0.06883937 0.07065851 0.22839296

fc21.weight f4 [20, 128]
000000 6f df 98 3d 38 5f 80 3d ae e9 4f 3c a9 c6 8b bd
       0.074644916 0.062681615 0.012689991 -0.06825001
000010 0e b1 95 bd e4 e1 94 bc 29 b5 10 3d 2e cc b9 39
       -0.07309161 -0.01817412 0.035329018 0.00035438075
000020 62 27 bf 3c f2 24 94 bd 8f 24 8a 3d 9c 69 19 bd
       0.023334209 -0.07233609 0.06745254 -0.037454233
000030 bc bf 78 3d f7 64 21 3d d1 22 74 3b 1e 69 22 bd
       0.060729727 0.03940293 0.0037252198 -0.03965103
000040 cf 1c fb 3c 40 a3 25 bd 6a 90 a9 bc a5 94 d7 3c
       0.030653385 -0.04043889 -0.020698745 0.026315996
000050 97 1e 8b 3d 4e 92 08 3d d6 1f 64 bc 28 17 7c bd
       0.06792944 0.033342652 -0.013923606 -0.06154552
000060 54 79 6c 3d 30 05 bc 3c 78 c9 27 3d c5 cb 0d bd
       0.057732895 0.022951692 0.04096362 -0.034618158
000070 f1 a4 34 bd 0a 4f 01 bd 59 dd 68 3d 30 72 43 3c
       -0.044102613 -0.03156952 0.05685172 0.01192908
000080 04 ae 2f bd 10 3d fd 3b a6 72 31 3c a6 99 e7 3c
       -0.042890564 0.0077282265 0.010830557 0.028271507
000090 e4 cd a2 3c 54 34 40 bd 34 b9 01 3b 94 78 92 bd
       0.019873567 -0.046924904 0.0019794228 -0.07151905
0000a0 b6 33 66 3a d9 a3 43 3d 95 5e 04 3d 13 49 8f 3a
       0.0008781509 0.04776368 0.032316763 0.0010931812
0000b0 c2 61 ee ba 70 f4 7d 3b 13 c8 2c 3d 95 be 3d bc
       -0.0018187093 0.0038750432 0.042182993 -0.011581083
0000c0 f5 e7 08 bd 2a e6 96 bd 8c de 8f 3d 5a 40 25 3d
       -0.033424336 -0.07368119 0.07024869 0.040344574
0000d0 ee c6 8f 3b 98 55 74 3b d7 29 92 bb c4 86 93 bd
       0.004387728 0.0037282463 -0.004460554 -0.07203439
0000e0 96 81 70 bd f5 85 4c bd b1 35 9f 3d 64 b9 21 bb
       -0.058717333 -0.04993244 0.07773913 -0.0024677152
0000f0 25 10 45 3d 17 ed d5 bc 96 c0 45 bd e2 bf 82 bd
       0.0481111 -0.02611403 -0.048279367 -0.06384255
000100 62 d5 6f 3c a8 f5 29 bd b4 32 9d 3c be 0e 00 3d
       0.014638277 -0.04149404 0.019189216 0.03126406
000110 3c 5f a7 3d 0a 8b 22 3d 37 c4 a1 bd 66 ed 4a 3d
       0.081724614 0.03968338 -0.07898753 0.049542807
000120 9b 99 b5 bd f5 ed db bc c6 2d 1e bd 5b 6e 39 3d
       -0.088671885 -0.026846865 -0.03861787 0.04527126
000130 34 57 98 3c 3c 2a 47 3d ce d3 be 3c b2 93 5e 3d
       0.01859627 0.048624262 0.023294356 0.054340072
000140 69 55 e6 bc e1 e5 76 3c 72 fe e8 3c e0 a9 31 bc
       -0.028116899 0.015069456 0.028441641 -0.010843724
000150 28 fb 53 3d f9 d4 2a 3d bc 4c d4 3c e9 85 10 bc
       0.051753193 0.041707013 0.025915496 -0.008820989
000160 38 e6 a5 3d ae a4 b4 bc 4d 1d 6c bd 3f 80 86 bd
       0.08100551 -0.022051182 -0.05764513 -0.0656743
000170 37 b9 ae bc 36 14 3b bd bf c8 a3 bd 1c fd 1e 3d
       -0.021328552 -0.04567357 -0.07997274 0.038815603
000180 a1 d0 8f 3d 3c 07 57 3d 22 f4 ea 3c 84 19 8b bd
       0.07022215 0.052497134 0.028680865 -0.06791976
000190 f2 05 a4 bc 65 60 0b bd 90 39 35 bd 55 bf 6f bd
       -0.020022366 -0.034027476 -0.04424435 -0.058532078
0001a0 e9 07 98 bd eb e3 92 bd 8d 21 5a bd 0e e4 a9 3d
       -0.07423384 -0.07172378 -0.053254653 0.08295451
0001b0 40 ab 88 3c ca ad 83 3d f8 c7 49 3c 70 51 83 bc
       0.01668322 0.06429632 0.012315743 -0.016030043
0001c0 1e 45 29 3c d0 a1 13 bc af 95 02 bd 64 25 a0 bd
       0.01033142 -0.009010747 -0.03188103 -0.07819632
0001d0 37 1d 00 3d f1 bb 87 bd ce d3 dd ba 60 d1 32 3c
       0.03127786 -0.06627644 -0.0016924085 0.010914177
0001e0 ef 7a f6 3c c5 31 92 3d 44 f9 d0 bc d4 dc 83 3d
       0.030087916 0.07138399 -0.025509484 0.06438604
0001f0 c3 15 33 bd 86 a4 2e 3d fd 86 8e 3d 83 ef 44 3d
       -0.043721925 0.04263737 0.06959341 0.04807998
000200 f0 ec ad 3d 92 19 3d 3d 1a 10 a2 3c c4 97 90 bd
       0.08492458 0.046166964 0.019783068 -0.07060197
000210 88 21 40 3d 79 58 b2 bc e4 14 8b 3d 27 f8 1b bc
       0.046906978 -0.021770703 0.06791094 -0.009519613
000220 d0 1f ac 3d bd dc 4a 3d 83 a3 8c bd ad 42 e3 3c
       0.08404505 0.04952692 -0.06867125 0.027741754
000230 fe fb 47 bd 6e d5 92 bd 9e 37 8b bd c0 ee 0a bd
       -0.048824303 -0.07169615 -0.067977175 -0.033919096
000240 aa bf c5 3c e7 08 06 bc 81 76 97 bd f0 91 af 3d
       0.024139244 -0.008180833 -0.0739565 0.08572757
000250 67 23 91 bd d9 13 20 bd f4 22 a3 bc 5e f0 92 bc
       -0.070868306 -0.03908143 -0.019914128 -0.017936882
000260 b3 ad 76 3d ea 9e ac bd 71 7d 7e bd 99 e8 ad 3c
       0.060224246 -0.08428748 -0.06213135 0.021229075
000270 26 6b 2d 3d 04 c0 3c 3d 51 a9 1a 3c 64 6b ae bc
       0.042338513 0.046081558 0.009439782 -0.021291442
000280 65 00 6b 3c 91 89 dd bc dd b6 17 bd a3 be 0a bd
       0.014343356 -0.027043136 -0.037039626 -0.03387321
000290 24 74 0f bd 19 44 a3 3c 27 0f 15 bd 1a 38 ef 3c
       -0.03502287 0.019929932 -0.036391404 0.029201556
0002a0 74 3c 91 bd b3 9f 6e 3d 43 3a 85 3d 0f f9 2e 3d
       -0.07091609 0.05825777 0.06505253 0.04271799
0002b0 59 be bc 3d 9b 30 96 bd ee d9 99 3d e4 5b 3a 3d
       0.092159934 -0.073334895 0.0751227 0.04549779
0002c0 3d 65 0c 3d 69 59 22 bd cb 94 08 ba a0 5f 1b 3d
       0.034276236 -0.03963605 -0.000521016 0.037932992
0002d0 42 b4 7f 3d 5b 15 95 bd 73 57 0b bd e7 c4 01 bd
       0.062427767 -0.07279464 -0.034018945 -0.03168192
0002e0 d8 3b 72 bd ed e4 84 3d 9d 7a 68 bd 8d 83 79 3c
       -0.059139103 0.06488977 -0.056757558 0.015229118
0002f0 24 2e 28 bd 58 00 1a bd a7 45 36 bd 4b d5 59 bd
       -0.041059628 -0.037597984 -0.04450002 -0.053181928
000300 27 8c 16 bd 45 29 16 3d 7c 3c 63 3d 44 b2 25 bc
       -0.036754753 0.03666045 0.055477604 -0.010113303
000310 c0 73 98 3d dd 0b 21 3d 27 56 33 bd 2f a3 18 3d
       0.074439526 0.039317954 -0.043783333 0.037265
000320 9f 22 92 bd 63 b3 9b 3d 02 09 63 3d f5 9f c4 bc
       -0.0713551 0.07602575 0.055428512 -0.024002055
000330 bb 6f 57 bd 45 f1 54 3d cd a8 81 3d 80 96 c4 bc
       -0.05259679 0.051987905 0.06331024 -0.023997545
000340 ca 65 b8 3c 0e 8b 26 bd 72 5c 3c bd bd 9b 98 3d
       0.022509474 -0.040659957 -0.0459866 0.0745158
000350 0e 3b 0d 3c 8b 68 9d bb 5f c6 37 3d 9f b6 d9 3c
       0.008620037 -0.0048037223 0.044866916 0.026576338
000360 3a 02 33 bd 14 3a b8 ba ef ef 51 3d 20 29 93 3a
       -0.043703295 -0.0014055395 0.05125421 0.0011227466
000370 91 85 7b bd bb c2 eb bc 2f d4 8f bc 71 bc a7 3d
       -0.061406676 -0.028779378 -0.017557232 0.08190239
000380 6e 95 64 3d 8d 56 9a 3d a0 f4 73 3c f0 b2 c1 bc
       0.05580657 0.075360395 0.014889866 -0.023644894
000390 26 60 2e bd 0c 7a 10 bd f3 b0 06 ba 46 25 86 3b
       -0.042572163 -0.035272643 -0.0005138062 0.004093799
0003a0 6f 59 e0 bc fd 3b 08 3d 36 32 51 bd 24 04 0d bd
       -0.027386395 0.033260334 -0.051073276 -0.034427777
0003b0 4b 48 ec bc c3 51 0a 3d 2a e5 1f bd a8 68 7b 3c
       -0.028843066 0.03376938 -0.039036907 0.015344776
0003c0 71 90 99 bd 59 9e 4e bd 20 b8 9f 3c f1 63 b2 bc
       -0.07498253 -0.05044398 0.019496977 -0.021776171
0003d0 44 1e 34 bc 2c d7 30 bd b8 1e 13 3d 0a df 1d 3d
       -0.010993544 -0.043173954 0.035917968 0.038542785
0003e0 f1 16 4c 3d 4c 99 a5 3d db 25 e9 3b f6 b8 1c 3d
       0.049826566 0.0808588 0.0071151084 0.03826233
0003f0 34 6b 8d 3c d7 f2 ec 3b f0 b2 6e bd 1a 7c 4e 3c
       0.017263032 0.007231097 -0.058276117 0.01260283

fc21.bias f4 [20]
000000 96 14 ae bd 43 7c bc bc a4 a5 59 bd 64 d7 39 3d
       -0.0850002 -0.023008471 -0.053136483 0.045371428
000010 b9 98 a8 bd 27 4e 45 bc a4 3f d9 3c e4 20 67 bc
       -0.082322545 -0.012042559 0.026519604 -0.014106963
000020 5c cf bc bc c5 3c 2b bc ef af 79 3d 9b 7a 85 bd
       -0.023048095 -0.0104515 0.0609588 -0.06517526
000030 3c ed 04 bd 6a 4b 08 3c c4 21 0c 3d ac ea 21 bd
       -0.032452807 0.008318761 0.03421189 -0.03953044
000040 61 b3 88 bd 85 30 1e bb ed 9b 9a 3c 5d b9 b5 bd
       -0.06674839 -0.0024137807 0.01887318 -0.08873246

fc22.weight f4 [20, 128]
000000 de 24 7f bd 56 0e 11 3d 21 20 5b bd d9 67 a1 3c
       -0.06229102 0.035414062 -0.053497437 0.019702839
000010 09 98 aa 3d 5e 1a 5d 3c 3f 1d 57 bd f5 99 65 3d
       0.0832978 0.013495056 -0.052518126 0.056055028
000020 80 ac b7 3d 3a e9 42 bd bb b1 7c 3d f0 1e 26 3d
       0.08968449 -0.047585703 0.061692934 0.040556848
000030 c4 d0 87 3d 2b c8 f5 3b 74 3b 93 bb e5 20 89 bd
       0.06631616 0.0075006685 -0.0044931713 -0.06695727
000040 9d 77 88 3d 72 79 a9 3c 6e 9b 68 bd 6e 84 61 3c
       0.066634394 0.020687792 -0.056788854 0.013764484
000050 91 dd 31 bd a6 55 77 bd 4c 5e 74 bd 33 b5 f0 bc
       -0.043424193 -0.060384415 -0.05966024 -0.029383278
000060 fc 89 ff bc 09 76 c5 3d 54 1c 9f bd 60 ec 6a 3d
       -0.031193726 0.09641654 -0.07769075 0.05735433
000070 dd cf 58 3d 9e 75 c1 bc 9b 55 cc bc ed 80 45 3d
       0.05293261 -0.023615655 -0.024943164 0.048218656
000080 ea 69 2b bd fb d0 8e bd d0 02 aa bd 24 b0 80 3c
       -0.041849054 -0.069734536 -0.08301318 0.01570899
000090 32 7c d6 3c a8 9f 13 bd 32 fc 91 3d 8d 18 34 3d
       0.026182268 -0.036040932 0.071281806 0.043968726
0000a0 2a 55 18 bd 66 44 84 bd fc 5a 52 3d 03 d4 22 3d
       -0.037190594 -0.064583585 0.0513563 0.03975297
0000b0 46 fd 8f 3d d2 9a e9 bc fa d1 76 bd f3 dd 8a bd
       0.0703073 -0.028516207 -0.060258843 -0.06780615
0000c0 9c ef e8 3c af 9d 14 bd ee ec 2e bd c7 aa 72 3c
       0.028434567 -0.03628319 -0.042706423 0.014811224
0000d0 ac 45 93 3d 16 af 43 bc d1 7e 1e 3c 10 49 97 bc
       0.07191023 -0.011943599 0.00967379 -0.018467456
0000e0 43 86 07 3d bc b7 83 3d d5 b6 f6 3c 0b 9a 91 bd
       0.033087026 0.06431529 0.030116478 -0.071094595
0000f0 6e 26 2e bd a7 32 74 bd 85 62 44 3d 7e 7c 67 3d
       -0.04251712 -0.05961862 0.047945518 0.05651521
000100 ea 03 cf 3c 73 12 9e bb d1 5f bc 3d 7b b3 89 bd
       0.025270421 -0.0048239767 0.09197963 -0.06723686
000110 b9 01 bc 3d 60 83 a3 3d ec 61 8e bd 54 98 57 3c
       0.09180016 0.07984042 -0.06952271 0.013158876
000120 ef a1 4b bd 6e fb 31 3c f8 ac ba bd 60 38 95 ba
       -0.04971498 0.010863168 -0.091150224 -0.0011384599
000130 ca aa 2d 3c 97 65 01 bd 1a f2 64 3c 43 a3 45 3d
       0.010599801 -0.031591024 0.013973737 0.0482514
000140 14 1a a3 3d 68 83 6f 3d 2e 55 0f bd 98 fd 13 bd
       0.079639584 0.05847493 -0.034993343 -0.036130518
000150 48 8a 9e bb 6b 5a 3e 3d 73 5c b5 3d e6 73 3a bd
       -0.0048382618 0.046472948 0.08855524 -0.045520686
000160 84 af 84 3d fd 1c 60 bd 3b 57 a9 bd 19 7a ae bd
       0.064787894 -0.054715145 -0.08268591 -0.08519382
000170 00 2f 61 bd ac dd 17 3d fd 61 3e 3d 80 a4 a3 bc
       -0.054976463 0.037076637 0.046480168 -0.0199759
000180 9c 68 db bb b1 14 37 3d 4e 5f f4 bc 38 ff 92 bd
       -0.00669582 0.044697467 -0.029830601 -0.07177585
000190 bb aa 5f bd 48 b6 66 3d 1b 9f 90 bc 95 35 f5 3c
       -0.05460618 0.05632618 -0.017653992 0.029932776
0001a0 4c b9 d7 bc 2c 72 7d bd b7 59 f6 3c 72 21 c4 3d
       -0.026333474 -0.06187646 0.030072076 0.09576692
0001b0 fa 28 89 3d f4 43 d7 bc e3 d6 e7 bc d0 d3 8a bc
       0.06697269 -0.02627752 -0.028300708 -0.016946703
0001c0 c5 05 95 3d 12 d2 0d 3d 52 c0 51 bd 2e bd ef 3c
       0.07276491 0.034624167 -0.0512088 0.029265013
0001d0 e1 66 54 bd 50 fb 72 bd ed 80 c1 3c aa 2e 4c ba
       -0.051855925 -0.0593217 0.023621047 -0.0007788936
0001e0 e5 5a 88 bd f7 ab 71 bd 1b e4 b3 3c d3 45 3a bd
       -0.06657962 -0.05900189 0.021959355 -0.045476746
0001f0 8a 61 10 3c 22 a3 a8 3d 07 2e 38 bd 85 5b 4b 3d
       0.008812318 0.0823424 -0.04496577 0.049647827
000200 6a 4b 65 bc 5b ae 56 bd 18 96 28 bc 98 e8 4e 39
       -0.013995031 -0.052412372 -0.010289691 0.00019732339
000210 c1 a4 3b 3c de f1 0e 3d 1f 99 7c bd 1e 70 c2 3d
       0.011452855 0.03489863 -0.061669465 0.09494041
000220 36 9a 28 3c 5d bb 17 3c c1 dd 50 bd b4 7c 00 bd
       0.010290673 0.0092609795 -0.05099273 -0.031368926
000230 0f 38 82 3d a6 0c c8 3c f0 1e 47 3d 3c b2 7c 3b
       0.063583486 0.024420094 0.04861349 0.0038558384
000240 03 59 40 bd 3d 8b a0 bd cf 52 8f bd e6 96 f2 bc
       -0.04695989 -0.078390576 -0.06998216 -0.02961297
000250 c1 cc 06 bd 77 de 98 bd 36 bf d3 bc c0 d2 b8 3d
       -0.032910112 -0.07464307 -0.025848012 0.09024572
000260 37 f9 1e bd 96 38 51 3d 73 9c d8 bc 87 96 63 bd
       -0.03881189 0.051079355 -0.026441788 -0.055563476
000270 36 fe 9d bd 3c 3e 80 3d 67 a0 c5 bc 93 09 fe bc
       -0.077145025 0.0626187 -0.024124337 -0.031010425
000280 7a d7 14 3d 18 9c 93 3c ce c5 da bc 74 d0 a2 3d
       0.036338307 0.018018767 -0.026705649 0.079499155
000290 a0 6e 6b bc 69 d3 a3 3d d9 60 00 3c a8 43 ab 3c
       -0.014369637 0.07999308 0.00783559 0.020906284
0002a0 2a 6c c6 bb 6a 85 1a 3d 17 9c c6 bc fe 58 53 bd
       -0.0060553746 0.03772489 -0.024244351 -0.05159854
0002b0 d1 9e 37 3d 5a 92 fd 39 b5 52 3d bd 51 c5 a5 3c
       0.044829194 0.0004836496 -0.046221454 0.02023569
0002c0 6a f4 8b 3d 22 36 6a bd b5 ae 11 3c ef 02 f2 3b
       0.06833728 -0.05718053 0.008891751 0.0073856036
0002d0 bc ad 17 3d 27 2b c0 3d 0c 06 ae 3d 9f e2 c9 bc
       0.03703092 0.09383231 0.08497247 -0.024644194
0002e0 5a 46 a0 3d 1c 63 61 3d 18 0f 58 bb 8d 5e 6f 3d
       0.078259185 0.05502616 -0.003296798 0.05843978
0002f0 8b 97 80 bd 6e 4b 6b bc 51 a9 b9 3d 03 0f 59 3d
       -0.062789045 -0.014361246 0.09065498 0.052992832
000300 e1 d0 34 3d 56 70 84 bc 42 b1 ce bb da 59 eb bc
       0.044144515 -0.016166847 -0.006307752 -0.028729368
000310 7b be 94 bd ef c5 aa 3d f8 58 22 bd f5 be 7c 3d
       -0.07262894 0.08338534 -0.03963563 0.06170555
000320 53 b9 12 bd cc d4 ba 3d b5 c2 16 bd 59 21 9d 3d
       -0.03582127 0.09122619 -0.03680678 0.07672376
000330 31 a4 9b 3d b1 72 7b 3b 0d 07 92 bd 81 9e 45 bd
       0.075996764 0.0038367922 -0.07130251 -0.048246864
000340 b5 2b c3 bc fb e9 43 bd e9 73 5b bd 3a 1c 67 bd
       -0.023824552 -0.047830563 -0.053577337 -0.056423403
000350 88 9d 9e bc 0d f4 7e 3d e7 b5 45 3b 83 9b 0f bd
       -0.019362226 0.062244464 0.0030168237 -0.035060417
000360 63 e6 3d bd 7e 6c df 3b 09 e3 2e 3d 66 d4 0f bd
       -0.046362292 0.006818353 0.042696986 -0.03511467
000370 81 fb 84 3c 78 3d fd bc df ee 49 bd 75 ca c8 3d
       0.016233208 -0.0309131 -0.04930007 0.098042406
000380 52 a4 b6 bc eb 0c 0b bd e9 dd d9 b9 4f 1e b6 3d
       -0.02229515 -0.033947866 -0.000415548 0.088925
000390 a5 45 6b bd 23 16 2a 3d 20 8b 18 bd b3 28 89 bd
       -0.057439465 0.041525017 -0.037242055 -0.06697216
0003a0 39 42 5b bd 32 7d 66 bd da 4b 5d 3c b2 59 28 3d
       -0.05352995 -0.05627174 0.013506854 0.041101165
0003b0 75 4e 10 3c 51 b0 ad bb eb 6d a1 bb 4c 23 f5 bc
       0.008807768 -0.0053005596 -0.0049264333 -0.029924057
0003c0 be ec 1c bd 34 71 56 bd 27 6f 60 bd a0 95 86 bd
       -0.038311712 -0.052354053 -0.054793503 -0.065715075
0003d0 1c 05 aa bc 9c 06 68 bd f6 5d 97 bc c4 d2 22 3d
       -0.02075439 -0.05664693 -0.018477421 0.039751783
0003e0 8c 00 90 bd ae 50 29 3d c0 cd 5d 3d 10 10 ba bc
       -0.07031354 0.041336708 0.054151297 -0.022712737
0003f0 46 12 91 3c 0a 0e 6c bd 46 eb 96 3c e4 a2 3a 3d
       0.017708909 -0.057630576 0.018422734 0.0455655

fc22.bias f4 [20]
000000 10 f1 3c bd fb 5d a5 3d db af e7 3c 6b ce 81 3d
       -0.046128333 0.08074566 0.028282097 0.06338199
000010 53 6b 65 bd 1d 0b 81 bd e6 5c 22 3d ff e2 73 bd
       -0.056010555 -0.06300948 0.039639376 -0.059542652
000020 54 9d 74 3d cf ee a3 bd 0e 52 45 bd de ac 12 3d
       0.059720352 -0.080045335 -0.048173957 0.03580939
000030 fb c8 92 3d 74 1c 2f bd 82 23 11 3d 66 90 67 3d
       0.0716724 -0.042751744 0.035434254 0.056534193
000040 99 bb 68 bd d2 0c 52 3d 51 7c 62 3d c2 c5 20 3c
       -0.056819532 0.051281758 0.05529434 0.009812774

fc3.weight f4 [128, 20]
000000 d7 40 5e 3e 05 d0 82 3d 8a 18 37 be 83 a8 25 be
       0.21704422 0.06387333 -0.17880455 -0.16177563
000010 53 ed 34 bd f3 97 18 be 5c 8b 46 be 37 09 25 be
       -0.044171643 -0.14901714 -0.19389099 -0.16116796
000020 91 a3 3b be 75 e9 33 3e 97 86 36 3e 84 f0 3d 3b
       -0.18324114 0.17569526 0.1782478 0.002898247
000030 82 ce 0e 3e 4c 15 81 3d 7d b2 22 bd 94 15 1e 3e
       0.13945964 0.0630289 -0.039721 0.15437919
000040 13 ec ec 3d 40 b0 55 3d 1b 69 f6 bc 59 ea e9 bb
       0.11568465 0.05217004 -0.030079415 -0.007138532
000050 9f 21 4d 3e 22 04 2e 3e b0 8c 70 3e f0 39 f9 3d
       0.20032357 0.16993764 0.23491168 0.12169254
000060 46 03 d1 3c a1 96 69 3e 59 10 2b be 2f 5f 69 be
       0.025514256 0.22811367 -0.16705455 -0.22790216
000070 72 df 1c bd 9b fa 2c be 3b 3d 61 bd 5f 5e ed 3d
       -0.03829903 -0.16892473 -0.054990035 0.115902655
000080 bc 08 07 3d 87 6e f4 bd fa 7a bc bd 2f 58 d2 bd
       0.032967314 -0.11935144 -0.092031434 -0.10270726
000090 48 28 1f 3d c0 4f 0e bd 5d 12 53 3e 36 fc 4c be
       0.038856775 -0.034744024 0.20612474 -0.20018086
0000a0 4c e0 1d be 76 ec de bd 1e 04 3f bd 2f d5 ae 3d
       -0.15417594 -0.10884945 -0.046634786 0.08536755
0000b0 60 45 4f 3e 90 cb a7 3d e7 b3 23 3e 0f 10 9a bd
       0.20241308 0.08193123 0.15986596 -0.07522594
0000c0 8e 9a a4 bb 55 2b 3d 3e a7 2b 79 bc 18 cb 66 be
       -0.005023307 0.18473561 -0.015208161 -0.22538412
0000d0 8f 7f cc 3d 41 17 a8 3d 63 58 e5 3d e2 6c ae 3d
       0.09985267 0.0820756 0.11198499 0.085168615
0000e0 fd 14 82 bd 3f 2a 17 be ef da 5a be ab 21 61 3e
       -0.063516594 -0.1476221 -0.21372579 0.219855
0000f0 88 ee e6 3d 19 19 e8 bd 29 f9 f3 3d df 10 c0 3c
       0.11275965 -0.11332912 0.11912758 0.023445545
000100 0c 8f 5b bd e1 56 52 3e b1 a2 09 be a4 c9 0b 3e
       -0.053603217 0.20540954 -0.13440968 0.13651139
000110 2a 3a 07 be cf 6f ca 3d f4 72 31 bd d2 e6 c8 bd
       -0.13205782 0.09884607 -0.04332252 -0.098096505
000120 67 8c ff bc 3a 18 de 3d b4 bf 38 3d 77 fb 5f 3e
       -0.031194879 0.108444646 0.045104697 0.2187327
000130 92 7f 11 be f7 09 6b 3d af 1b 03 be ec bc 8a 3c
       -0.1420882 0.05738255 -0.12803529 0.016935788
000140 2c 26 3e be 75 a2 39 3e 2e 79 af bc b7 59 29 3e
       -0.18569249 0.18128379 -0.021420088 0.1653813
000150 9a 96 13 3e 05 c2 3d be 8c 63 3e be b3 1f ca 3d
       0.14412919 -0.18531044 -0.18592662 0.098693274
000160 e8 2d 97 3d ec ab 44 be a6 ff 80 bb e6 c4 83 3d
       0.07381803 -0.19206208 -0.0039367257 0.0643404
000170 7c 7d 75 3d 2e 97 6e bd 0c 52 03 3e cc 1e 08 3e
       0.059934124 -0.058249645 0.12824267 0.13292998
000180 a4 4e 63 bc e7 64 aa 3c 57 3e 5b bd 2e 27 b6 3d
       -0.01387373 0.020800067 -0.05352625 0.08894192
000190 7b c2 02 3e 98 72 8e 3c 18 b3 3f bd 6b ec d2 3c
       0.12769501 0.017388627 -0.046801656 0.025747498
0001a0 f3 12 aa 3d 70 44 28 3e 2a d0 29 3c 87 4b 45 be
       0.083043955 0.16432357 0.010364572 -0.19267093
0001b0 f7 cf 3e 3d 63 33 88 3d 07 cc 0b 3e 1a 32 09 be
       0.04658505 0.06650426 0.13652049 -0.13398018
0001c0 b2 56 f4 3d ef eb 22 be 95 56 3a 3e 79 c2 3b bd
       0.11930598 -0.15910314 0.18197091 -0.04583976
0001d0 ea 5c 2a be 9f 9a 48 3d 48 d6 39 3d 93 18 35 3e
       -0.16637006 0.048975583 0.04537037 0.17685156
0001e0 27 ad c8 3d 42 93 16 be 81 bb 66 be 8e 9a 4b be
       0.09798651 -0.14704612 -0.22532465 -0.19883177
0001f0 a5 07 21 be 4d b0 40 3e fe 95 0a bd 22 36 22 bd
       -0.15725572 0.18817253 -0.03383445 -0.039602406
000200 d7 7b 70 3e 39 3a f7 bc 77 78 d3 3d 13 f6 af 3c
       0.23484741 -0.03017913 0.10325711 0.021479642
000210 2c eb 40 be b3 c4 32 3e b2 96 5d 3e 9b 0a 20 be
       -0.18839711 0.17457847 0.21639517 -0.15629046
000220 26 0c 98 bc a7 5e 37 3d 4d 71 e3 3d ca 37 45 3e
       -0.01856048 0.044768002 0.11105595 0.19259563
000230 1d cc b8 bc e7 7c 3b be 1d 94 17 be ef 8c e3 bd
       -0.022558266 -0.18309365 -0.14802594 -0.11110865
000240 f1 fa 5a bc 49 ee c4 3b e5 58 04 3e f5 10 6c 3d
       -0.013365493 0.006009851 0.12924536 0.05763336
000250 2e a3 53 3e ff 9a 1f be 80 8d 82 3d fb 03 46 3e
       0.20667717 -0.1558647 0.06374645 0.19337456
000260 f8 ac cd bc 6a 7b 75 be 4f 38 56 3e 5b 8d 71 be
       -0.025106892 -0.2397286 0.20919918 -0.23589079
000270 df 96 68 be 1b 07 9c bc 19 24 30 3e 66 ac a1 bd
       -0.22713803 -0.019046357 0.1720127 -0.078942105
000280 69 19 31 be f5 a7 9a bd db a4 18 be 42 e4 1a 3e
       -0.1729485 -0.075515665 -0.14906637 0.15126136
000290 fc b0 2d be f8 ab 51 3e 85 93 a2 bd f0 5a e0 3d
       -0.16962045 0.20475757 -0.07938293 0.10954845
0002a0 6c 17 ae 3d 28 f7 00 be c5 be 1c be 9f e5 98 3c
       0.08500561 -0.12594283 -0.15307148 0.01866418
0002b0 06 f5 d3 bd 2c 22 3e 3e 7b fe 79 bd 98 f4 b9 3d
       -0.10349469 0.18567723 -0.061033707 0.09079856
0002c0 38 29 e4 bc 54 f6 6c 3e 7d 9c a3 bd 4a b1 67 be
       -0.027851686 0.23140842 -0.07988832 -0.22626224
0002d0 83 1e b9 bd 7c 6a 00 be 66 34 4a 3e 49 38 4f be
       -0.09039023 -0.1254062 0.19746551 -0.20236315
0002e0 1f 7d cf 3d 4b 4d 22 3e 5b 23 34 bd fb c0 57 3e
       0.10131287 0.15849797 -0.04397903 0.2106971
0002f0 25 53 3e 3d ea 5a 14 be bc 24 48 3e ad a9 4c be
       0.04646601 -0.14487806 0.19545263 -0.19986601
000300 8c de e2 bc a5 dd 33 be 3b 16 f7 bd 1c 2e 0c be
       -0.02769401 -0.1756502 -0.12064787 -0.13689464
000310 64 5c 9f bd 56 97 53 be 51 78 51 be 3e 7a a8 bc
       -0.07781294 -0.20663199 -0.20456053 -0.020566102
000320 45 48 58 be 66 42 6b be 80 e9 15 3d 19 76 dc 3d
       -0.21121319 -0.22974548 0.036599636 0.10764713
000330 27 d2 3d 3e 6d 0c 05 3e 4d 6d cf bd 88 ea 57 be
       0.18537198 0.12993021 -0.10128269 -0.2108556
000340 6d a8 f9 3c 43 13 4f be d3 73 6f bd 61 62 52 be
       0.03047582 -0.20222192 -0.058460068 -0.20545341
000350 23 79 f3 3d df 17 0b 3e 2c 05 12 3e c4 2b b5 bd
       0.11888339 0.13583325 0.14259785 -0.08846238
000360 dc 5e a7 bd ea 6c 29 3e eb 7d 0d 3c 4b ef 18 3e
       -0.0817239 0.16545454 0.008635978 0.14935033
000370 72 87 f0 3d 74 fd 5c be 1b ae 44 bd aa ed bf bd
       0.11744584 -0.2158106 -0.048017602 -0.09371503
000380 5c 81 50 be b4 47 93 bd f3 2b a2 3d 7e ae 69 3e
       -0.20361847 -0.07191411 0.07918539 0.2282047
000390 9c a1 10 bd 7f f4 dd 3d 2c f2 de 3d 72 d9 0b be
       -0.035310373 0.108376496 0.10886034 -0.13657168
0003a0 6b a8 dd bd 76 ad 1c 3e 2e 3a 30 be 09 25 b7 3d
       -0.10823139 0.15300545 -0.17209694 0.08942611
0003b0 60 c2 13 be a0 c1 26 3e dd 50 b7 bc dc 44 17 3e
       -0.14429617 0.162848 -0.022377426 0.14772362
0003c0 cd b0 41 3e 4b 46 26 3e f4 7d 0f be 4f 28 29 3e
       0.189151 0.16237752 -0.14012891 0.16519283
0003d0 d7 10 38 bd 37 ea 2a be 94 6b 4a 3e 77 0c 0c be
       -0.044937935 -0.16690908 0.197676 -0.1367663
0003e0 51 68 1c 3e c7 c1 64 3d e9 15 23 be 57 81 44 be
       0.15274169 0.055848863 -0.15926327 -0.19189964
0003f0 8e 9c 38 3e 84 93 48 be 14 59 40 3e 59 14 0c bd
       0.18028471 -0.19587523 0.1878398 -0.034199093

fc3.bias f4 [128]
000000 2e c8 fa bd 2b 0d 46 3d 01 07 c2 bd 85 83 0d be
       -0.122452125 0.0483524 -0.09473992 -0.13819702
000010 a2 b0 a0 3d ca 18 92 bd 96 4f 0d bd 67 e9 13 be
       0.0784619 -0.071336344 -0.034499727 -0.14444505
000020 5c 95 84 bd bb da 80 bc 15 94 8d 3d 66 74 8e 3d
       -0.064738005 -0.015729299 0.0691301 0.06955795
000030 1b cc 19 3d 5a b1 cb 3c c8 c3 4c 3e 02 5c 0b be
       0.037548166 0.024864841 0.1999656 -0.13609317
000040 9d 13 6a 3e fc 94 a4 3c c8 44 a6 3d 84 b2 36 be
       0.22859044 0.020090573 0.08118588 -0.17841536
000050 12 d9 6e 3e 5d 3c b5 bd bd e8 2f 3d 2a df 51 be
       0.23324993 -0.08849404 0.042946566 -0.20495287
000060 80 2f 4c 3e e4 c4 ae 3d d1 52 2d be fd 19 14 3d
       0.19939995 0.08533648 -0.16926123 0.036157597
000070 2e e9 4f bd 5a 3d e5 3c 24 53 a1 bc 7e 27 be 3d
       -0.050759487 0.027983356 -0.019692965 0.09284876
000080 c8 08 39 be ab 06 4c be 67 c8 47 3e 8a 5c 76 be
       -0.18069756 -0.19924419 0.19510041 -0.24058738
000090 6c f8 13 3e b6 79 0c 3e 59 01 52 3e bb 10 03 3d
       0.14450234 0.13718304 0.20508327 0.031998377
0000a0 4f 2a 5c 3e b6 84 57 be 31 4b 57 3e 11 ae e6 3d
       0.21500514 -0.21046719 0.21024777 0.11263669
0000b0 b3 44 4a 3d 12 a2 ac bd 96 ce 23 be 97 21 6e 3d
       0.049381923 -0.0842935 -0.15996775 0.058137503
0000c0 14 77 02 be 0e c7 b0 3d 42 a0 71 3e 29 00 10 bd
       -0.12740737 0.08631717 0.2359629 -0.035156403
0000d0 7d 34 12 be 14 60 63 3e 8b e7 be 3d 43 3d 25 3e
       -0.14277835 0.2220462 0.09321507 0.1613665
0000e0 1c 9d 61 be 7d d8 e5 bc d9 5b 4f 3e 58 4f cb bd
       -0.22032589 -0.028057331 0.20249881 -0.09927243
0000f0 89 ef 6a 3d bd 53 42 be 0d e9 39 3c 48 8a 05 be
       0.057357345 -0.18977256 0.011347068 -0.13041031
000100 49 90 57 3e 09 80 51 3e 4a 16 37 be 6f 1a 19 be
       0.21051134 0.20458998 -0.17879596 -0.1495149
000110 4a 0d d7 3d bc 26 9f 3d 30 c2 57 3e 51 3a 80 bd
       0.105005816 0.0777106 0.2107017 -0.06261123
000120 34 77 0a 3e 31 43 cc bd ad 80 b4 3d 92 8d 40 3d
       0.13522035 -0.09973753 0.088136055 0.047010012
000130 e5 e3 ae bc a2 fa 1c be a9 52 38 be df cb 21 bd
       -0.021348903 -0.15329984 -0.18000282 -0.039501067
000140 7c 0b 15 3e 3e 42 35 3e a1 6e 16 3e 2f 14 7d bc
       0.14555162 0.1770105 0.14690639 -0.015446707
000150 da c7 29 3e fa 32 6f 3e 3e c5 e5 bd 80 c4 0f 3e
       0.16580144 0.2335929 -0.112192616 0.14039803
000160 62 67 49 be fc 44 66 3d a9 86 d9 bd f0 64 12 3e
       -0.19668344 0.056218132 -0.106213875 0.14296317
000170 b2 96 da bd b3 af 11 3e 05 d6 11 3e e8 e0 a8 bc
       -0.10673274 0.1422718 0.14241798 -0.020615056
000180 90 d0 c8 3d dd 05 92 bd bd d1 7b 3d 99 b2 9f 3c
       0.09805405 -0.071300246 0.06147932 0.019494342
000190 89 ea 51 be 25 44 78 3e e9 a6 af bd af 05 c8 3c
       -0.20499624 0.24244745 -0.085767575 0.024416773
0001a0 02 ba b5 3c 71 bc b1 3d 7b 44 2b 3e 02 c1 1f be
       0.022183422 0.086785205 0.16725342 -0.1560097
0001b0 57 d2 4b be 7e bb 2e 3e bb aa e6 3d eb 6d fe bd
       -0.19904457 0.1706371 0.11263033 -0.12423309
0001c0 80 7a ed bd 21 a5 c8 bd 5e cb b7 3d e9 a8 dc bc
       -0.11595631 -0.09797121 0.08974336 -0.026936011
0001d0 6c 48 6c 3e 93 d4 84 3c fc 5e 54 3e ee e4 21 be
       0.23074502 0.016214645 0.20739359 -0.15809986
0001e0 51 a5 0d 3e d1 2e f6 3d d0 44 ea bd 78 ad 01 3c
       0.13832594 0.12020648 -0.11438906 0.007914893
0001f0 54 68 22 3e 29 e5 3e be e1 1a c0 3d 7a 99 89 3d
       0.1586011 -0.18642105 0.09380127 0.067187265

fc4.weight f4 [8, 128]
000000 63 fe 93 bd 58 c8 39 bd dd 17 8e bd 30 83 3f 3d
       -0.07226255 -0.04535708 -0.06938145 0.04675597
000010 61 29 66 3c 65 84 81 bd 77 36 17 bd fb b2 b5 bd
       0.014047951 -0.063240804 -0.036917176 -0.088720284
000020 fa 87 aa bd d1 0d d1 bd c5 ed 17 bd 06 ea 40 3c
       -0.08326717 -0.102077134 -0.03709199 0.011774546
000030 a3 8c 13 bd 16 8a 7c bd 69 40 89 3d 09 c7 c6 bb
       -0.036022794 -0.061655127 0.067017384 -0.0060662073
000040 93 b5 d2 bd 2d 62 18 3d bc fb 48 bd 33 e2 9b 3b
       -0.10288539 0.037203003 -0.049068198 0.0047571897
000050 0e f8 2c bd 78 ad e9 bc 6f 9d 52 bc b5 14 cb 3c
       -0.04222875 -0.0285251 -0.012854918 0.024790147
000060 4e 19 ba 3c 9b 3e ac bd 1c 4d 4d 3d d7 31 72 bc
       0.022717144 -0.084103785 0.050122365 -0.014782391
000070 69 62 39 3d 98 6e 6a bc 21 25 d5 3c 3f 3b b7 3b
       0.045259867 -0.014308594 0.026018681 0.0055917795
000080 ad 17 82 3c 8e f2 d1 bd 84 ca 70 3d c8 b5 7a 3d
       0.01588043 -0.10251342 0.058786884 0.061208516
000090 79 ca 2e 3d a4 a9 83 bd e8 52 97 bd a6 c7 3d 3d
       0.04267356 -0.06428841 -0.0738886 0.046332978
0000a0 fa bc fd 3c 87 46 34 bd 31 1f 19 bb 19 d6 b2 bd
       0.0309739 -0.044012573 -0.0023364539 -0.08732242
0000b0 31 2e 81 bd e9 94 0e 3d 3d af d9 3c 99 69 4c 3d
       -0.063076384 0.03480998 0.026572818 0.049905393
0000c0 1b 94 bd bd ff 7b cd bc 33 7d a4 3b d5 ef 66 bc
       -0.092567645 -0.02508354 0.0050198077 -0.014095266
0000d0 93 db ec 3c 23 46 d5 ba 2c 4f bf bd 76 b6 1c 3c
       0.028913295 -0.0016271513 -0.09341273 0.009564986
0000e0 c9 ac 4e 3d 4c f8 63 3d 2c 05 ce bd fd 9b 9f bd
       0.05045775 0.055656716 -0.1005958 -0.07793424
0000f0 5f fd 40 3c 85 74 15 bc 8b 68 c6 bd b7 6b 3a 3b
       0.011779158 -0.009122019 -0.09687909 0.002844555
000100 43 34 6e 3d 16 24 59 bd 9c 09 51 3d de 80 e2 bc
       0.05815531 -0.05301293 0.051034555 -0.02764934
000110 14 48 1b 3d 9a 1d a3 bd 2e b2 8f bd 73 33 c5 bb
       0.037910536 -0.079646304 -0.07016407 -0.006018096
000120 89 e3 d0 3c 40 63 1e bc ce 95 25 bd 9a 8a c7 bd
       0.025499122 -0.009667218 -0.040426068 -0.09743233
000130 64 8e 7b 3d 5e b4 5c 3d 34 e2 2b 3d f4 ad cf bd
       0.06141509 0.05388295 0.04196377 -0.10140601
000140 50 5b a7 bd f1 75 b8 3c 0e cd 4c 3a 08 6c 82 3d
       -0.08171713 0.022517176 0.0007812538 0.063682616
000150 56 8d e8 bc 68 d5 b0 bd 33 d3 90 bd 1d 1a dc bc
       -0.028387707 -0.08634454 -0.07071533 -0.02686792
000160 9f 3a b3 bd 98 b3 5b bd bc 64 8b 3c 63 46 28 3d
       -0.087514155 -0.05363807 0.017015807 0.04108275
000170 9f ab aa bd c8 3b bf 3c 70 71 2a 3d d0 a1 70 3d
       -0.083335154 0.023343936 0.04161209 0.058748066
000180 1b f3 2f 3d 0a 48 e0 bb 61 af 69 bc 1d c7 9c bd
       0.042956453 -0.006844525 -0.014263005 -0.07655165
000190 46 2f 01 bd 4f 7e 8f bd aa c1 5b bd e2 1b a5 3c
       -0.031539224 -0.07006513 -0.05365149 0.020154897
0001a0 ee ba ce 3b 6b 7c 9a bd 78 02 c0 bb 6d 49 82 3a
       0.006308905 -0.07543262 -0.0058596693 0.0009940095
0001b0 67 6f 51 3d eb 81 57 bd 0c 3b 14 bc 23 4a b3 bd
       0.051131632 -0.052614134 -0.009047281 -0.08754375
0001c0 8f 6b 93 bd 7c 36 4e bb 04 b7 9e bd f6 33 84 bd
       -0.071982495 -0.003146558 -0.07749751 -0.06455223
0001d0 8b 19 3b bc 30 7a 8e bd 70 61 cb bb 7f d0 cc 3c
       -0.011419664 -0.06956899 -0.006206684 0.025001762
0001e0 4c 6f 2a 3d ef 2e 15 bd 1c 3d 16 3d 54 1a 55 3d
       0.041610047 -0.036421712 0.036679372 0.05202706
0001f0 2d c2 ab 3c 7a 50 e3 3c ad eb 8c 38 aa 45 b9 bd
       0.020966614 0.027748335 6.719618e-05 -0.090464905
000200 8f f3 3c 3d 94 6c cd bd 15 55 24 3c 74 90 2b 3d
       0.046130713 -0.10030475 0.010030051 0.041885808
000210 3f 3c 39 bd 3a 35 3f 3d 01 00 87 bc 9e 31 9d bd
       -0.04522347 0.04668162 -0.016479494 -0.07675479
000220 62 aa c7 bd 9d 63 8f bb 16 83 80 bd 37 c3 6b 3d
       -0.09749295 -0.0043758885 -0.06275003 0.05755922
000230 d9 82 98 bc dc ea e6 3c ca 55 0a bc 63 47 59 3c
       -0.01861708 0.028188162 -0.008443305 0.013261649
000240 a1 4a 48 bb 63 5f f5 bc d8 71 6e bc e4 ec af bc
       -0.003056206 -0.02995271 -0.01455351 -0.021475263
000250 f8 d8 74 3d 3c 60 b1 bc dc 7f 1b 3c 3b 90 49 3d
       0.05977723 -0.021652333 0.009490933 0.049209815
000260 d2 01 ad bd 98 3e 8c 3d da c9 80 3c fa b1 a9 bd
       -0.08447613 0.06847876 0.01572125 -0.082858995
000270 58 1a ac 3c c4 ea 95 bd 75 50 bc bd 14 50 d0 bd
       0.021008655 -0.073201686 -0.091950335 -0.10171524
000280 35 16 e0 bc 74 1e d2 bc 0a cf 85 3d 23 b5 5e 3d
       -0.02735434 -0.025649287 0.0653363 0.054371964
000290 a5 52 3a 3c bf 57 4e 3b ca 29 c6 bd a9 a4 c6 bd
       0.011372243 0.0031485406 -0.096759394 -0.09699375
0002a0 71 af 75 bd 9d a2 66 bd 1b 7e 72 bc 93 de 8a 3c
       -0.059981767 -0.056307424 -0.014800574 0.016951835
0002b0 80 63 bc bd e9 92 b0 bd 0e 08 90 bd b7 c0 21 bc
       -0.091986656 -0.08621771 -0.07032786 -0.009872607
0002c0 b4 e0 71 3d 57 c7 d6 bd df ff cc bd 63 f1 30 3d
       0.059052184 -0.1048724 -0.10009741 0.043198954
0002d0 d8 68 44 bd ef 7b 6c 3d 49 a8 72 3d 2e de 39 3d
       -0.04795155 0.05773538 0.05924252 0.045377903
0002e0 b3 ff 06 3c a4 59 8f 3d 2f 2b 68 3d e3 a4 78 3d
       0.008239674 0.069995195 0.056681808 0.060704123
0002f0 93 a5 14 bc ff 07 aa 3b fd 9c 26 bd 0c 79 3b bd
       -0.009072679 0.0051889415 -0.04067706 -0.045769736
000300 fd f8 7b bd ec c2 98 3b fe 5b bc b9 96 e1 a2 bd
       -0.06151675 0.0046619084 -0.00035926694 -0.07953183
000310 71 b4 f4 3c 61 e6 3b ba 95 36 30 3d 7e 2e 85 3d
       0.029871197 -0.0007167813 0.043020803 0.06503008
000320 67 75 b9 bb 83 bc 4a 3d 27 c3 4c 3c 96 5a b1 3c
       -0.0056597474 0.049496185 0.0124977 0.02164964
000330 bf da ab bd af 5b a1 bb d2 f4 b4 39 16 65 87 3d
       -0.08391332 -0.0049242596 0.0003451468 0.066110775
000340 78 ba 87 bd 71 5b 96 bc 96 34 8e 3d cb 36 79 bd
       -0.06627363 -0.01835415 0.06943624 -0.06084327
000350 37 27 50 3d 3a 1c eb 3c 88 8c 9c 3c 97 b2 9b bc
       0.05081865 0.028699983 0.01910998 -0.019006057
000360 11 ad 6c bd 22 d7 00 3d d7 a2 15 3d 47 56 4d 3d
       -0.057782236 0.031455167 0.03653225 0.05013111
000370 ed 4d d0 3c 17 ac 6c bd 3e 1c 93 bd 47 0f d4 bd
       0.025427783 -0.057781305 -0.07183121 -0.103544764
000380 76 84 36 bc 17 4b cd bd db f0 8a 3d bc b4 b9 bd
       -0.01113998 -0.10024088 0.06784221 -0.090676755
000390 65 09 6e 3d cd e1 13 bc 5a d4 65 bd 2c d4 a0 3c
       0.058114428 -0.009026003 -0.056110717 0.019632421
0003a0 b2 86 dc 3c 93 45 e4 bc 94 c2 89 bd 1d d6 09 3d
       0.026919696 -0.027865207 -0.06726566 0.03365146
0003b0 69 36 1b 3d 59 ff 07 bd 94 20 1e bb a8 53 7c 3d
       0.037893686 -0.033202503 -0.0024128305 0.06160322
0003c0 56 34 4e 3d 99 3d d3 bd 47 37 a8 bd 78 60 48 3d
       0.05034288 -0.10314483 -0.08213668 0.048920125
0003d0 c0 ca 69 bd 32 64 2a 3d 3d f9 10 3d 88 78 7f 3b
       -0.057078123 0.04159946 0.035393942 0.0038981754
0003e0 15 a2 89 3d 74 92 18 3d c6 48 71 bd c1 0b 94 bd
       0.06720368 0.037249044 -0.058907293 -0.072288044
0003f0 49 84 0f bd 6b f9 40 3c be 1d 45 bd 78 3a 74 3d
       -0.035038266 0.011778216 -0.048124067 0.059626073

fc4.bias f4 [8]
000000 bb 31 1e bd 5e a6 90 bd df 7d 11 bd 82 a9 62 3d
       -0.038621645 -0.07062982 -0.03552043 0.055337436
000010 64 67 6f bd 80 94 68 3d 24 a4 ec 3b a2 e1 81 3d
       -0.05844821 0.056782246 0.0072217155 0.06341864
